tensorflow/model.tflite (tflite, 104640 bytes, 4 tensors)

sequential_3/sequential_2/dense_2/MatMul i1 [80, 1200] scale=0.014435415 zero_point=0
0	0x09	0.12991874
1	0xfc	-0.05774166
2	0x02	0.02887083
3	0x07	0.1010479
4	0xf4	-0.17322499
5	0xf2	-0.2020958
6	0x03	0.043306246
7	0x05	0.072177075
8	0x05	0.072177075
9	0x03	0.043306246
10	0x03	0.043306246
11	0x07	0.1010479
12	0x05	0.072177075
13	0x10	0.23096664
14	0x02	0.02887083
15	0x03	0.043306246
16	0xfc	-0.05774166
17	0xf6	-0.14435415
18	0x06	0.08661249
19	0xfd	-0.043306246
20	0xf6	-0.14435415
21	0xe4	-0.4041916
22	0xec	-0.2887083
23	0x0b	0.15878956
24	0xf3	-0.1876604
25	0xf0	-0.23096664
26	0x04	0.05774166
27	0x01	0.014435415
28	0xff	-0.014435415
29	0xf8	-0.11548332
30	0xf5	-0.15878956
31	0xf9	-0.1010479
32	0xfc	-0.05774166
33	0x03	0.043306246
34	0x02	0.02887083
35	0xf3	-0.1876604
36	0xf6	-0.14435415
37	0xfd	-0.043306246
38	0xff	-0.014435415
39	0xfe	-0.02887083
40	0xd3	-0.6495937
41	0x08	0.11548332
42	0xf5	-0.15878956
43	0x10	0.23096664
44	0x15	0.3031437
45	0xe8	-0.34644997
46	0xf5	-0.15878956
47	0x04	0.05774166
48	0x06	0.08661249
49	0x0f	0.21653123
50	0xf8	-0.11548332
51	0xf7	-0.12991874
52	0x06	0.08661249
53	0x1d	0.41862705
54	0xf5	-0.15878956
55	0x05	0.072177075
56	0x04	0.05774166
57	0x02	0.02887083
58	0x00	0.0
59	0xf3	-0.1876604
60	0x06	0.08661249
61	0xf8	-0.11548332
62	0xf7	-0.12991874
63	0xfa	-0.08661249
64	0x06	0.08661249
65	0xfa	-0.08661249
66	0x0f	0.21653123
67	0x14	0.2887083
68	0xfb	-0.072177075
69	0xf4	-0.17322499
70	0xfc	-0.05774166
71	0x09	0.12991874
72	0xfd	-0.043306246
73	0xfb	-0.072177075
74	0x05	0.072177075
75	0xfd	-0.043306246
76	0xfc	-0.05774166
77	0xff	-0.014435415
78	0x0a	0.14435415
79	0x01	0.014435415
80	0x0f	0.21653123
81	0x1e	0.43306246
82	0x0e	0.2020958
83	0x12	0.25983748
84	0x0b	0.15878956
85	0x02	0.02887083
86	0x14	0.2887083
87	0x09	0.12991874
88	0xf6	-0.14435415
89	0x0a	0.14435415
90	0x14	0.2887083
91	0xfb	-0.072177075
92	0xff	-0.014435415
93	0x0e	0.2020958
94	0xf6	-0.14435415
95	0x03	0.043306246
96	0x07	0.1010479
97	0xfe	-0.02887083
98	0x03	0.043306246
99	0xef	-0.24540205
100	0x0a	0.14435415
101	0x10	0.23096664
102	0xfc	-0.05774166
103	0xed	-0.2742729
104	0xf9	-0.1010479
105	0xfc	-0.05774166
106	0xf0	-0.23096664
107	0xf6	-0.14435415
108	0x01	0.014435415
109	0x0a	0.14435415
110	0x03	0.043306246
111	0xfb	-0.072177075
112	0x04	0.05774166
113	0x00	0.0
114	0x03	0.043306246
115	0x08	0.11548332
116	0x06	0.08661249
117	0xf1	-0.21653123
118	0xdd	-0.50523955
119	0x00	0.0
120	0xe2	-0.43306246
121	0xf7	-0.12991874
122	0x01	0.014435415
123	0x24	0.51967496
124	0xfe	-0.02887083
125	0x03	0.043306246
126	0x08	0.11548332
127	0x08	0.11548332
128	0x1f	0.44749787
129	0x0a	0.14435415
130	0x16	0.31757912
131	0x02	0.02887083
132	0x07	0.1010479
133	0x29	0.591852
134	0xff	-0.014435415
135	0xcc	-0.7506416
136	0xec	-0.2887083
137	0xf9	-0.1010479
138	0xf2	-0.2020958
139	0xf4	-0.17322499
140	0x08	0.11548332
141	0x0d	0.1876604
142	0x13	0.2742729
143	0x02	0.02887083
144	0x11	0.24540205
145	0x06	0.08661249
146	0xf8	-0.11548332
147	0xf7	-0.12991874
148	0xf5	-0.15878956
149	0x15	0.3031437
150	0x13	0.2742729
151	0x0a	0.14435415
152	0x02	0.02887083
153	0x0a	0.14435415
154	0xfe	-0.02887083
155	0x00	0.0
156	0xf5	-0.15878956
157	0x01	0.014435415
158	0x02	0.02887083
159	0xfb	-0.072177075
160	0x1e	0.43306246
161	0xfe	-0.02887083
162	0xff	-0.014435415
163	0x08	0.11548332
164	0x09	0.12991874
165	0x06	0.08661249
166	0x0b	0.15878956
167	0xfa	-0.08661249
168	0x0d	0.1876604
169	0x0b	0.15878956
170	0x06	0.08661249
171	0xfe	-0.02887083
172	0x18	0.34644997
173	0x0d	0.1876604
174	0x0b	0.15878956
175	0xff	-0.014435415
176	0xfc	-0.05774166
177	0x0b	0.15878956
178	0x03	0.043306246
179	0x05	0.072177075
180	0x18	0.34644997
181	0xf8	-0.11548332
182	0x00	0.0
183	0x08	0.11548332
184	0x0e	0.2020958
185	0x16	0.31757912
186	0xfc	-0.05774166
187	0x08	0.11548332
188	0xf8	-0.11548332
189	0xea	-0.31757912
190	0xf5	-0.15878956
191	0xff	-0.014435415
192	0xfb	-0.072177075
193	0xfc	-0.05774166
194	0x02	0.02887083
195	0xf8	-0.11548332
196	0xfb	-0.072177075
197	0xec	-0.2887083
198	0xf8	-0.11548332
199	0x03	0.043306246
200	0x0f	0.21653123
201	0xff	-0.014435415
202	0xff	-0.014435415
203	0x07	0.1010479
204	0x0b	0.15878956
205	0x04	0.05774166
206	0x0d	0.1876604
207	0x0a	0.14435415
208	0x01	0.014435415
209	0x07	0.1010479
210	0x10	0.23096664
211	0x0b	0.15878956
212	0x02	0.02887083
213	0x05	0.072177075
214	0x09	0.12991874
215	0x16	0.31757912
216	0x09	0.12991874
217	0x11	0.24540205
218	0x0a	0.14435415
219	0x0e	0.2020958
220	0x10	0.23096664
221	0x08	0.11548332
222	0xfc	-0.05774166
223	0x1f	0.44749787
224	0x05	0.072177075
225	0x09	0.12991874
226	0xfa	-0.08661249
227	0xfd	-0.043306246
228	0xfa	-0.08661249
229	0xfc	-0.05774166
230	0x06	0.08661249
231	0xf2	-0.2020958
232	0x0e	0.2020958
233	0xf5	-0.15878956
234	0x05	0.072177075
235	0x06	0.08661249
236	0xfe	-0.02887083
237	0x14	0.2887083
238	0xea	-0.31757912
239	0x01	0.014435415
240	0x13	0.2742729
241	0x11	0.24540205
242	0xfc	-0.05774166
243	0xf5	-0.15878956
244	0xfc	-0.05774166
245	0xfa	-0.08661249
246	0x0c	0.17322499
247	0xff	-0.014435415
248	0x03	0.043306246
249	0x09	0.12991874
250	0x0d	0.1876604
251	0x03	0.043306246
252	0xff	-0.014435415
253	0x00	0.0
254	0xf6	-0.14435415
255	0x07	0.1010479

sequential_3/sequential_2/dense_3/MatMul i1 [40, 80] scale=0.008060526 zero_point=0
0	0xf1	-0.12090789
1	0xc7	-0.45944998
2	0x13	0.15314999
3	0x0d	0.10478684
4	0xf5	-0.08866578
5	0x07	0.056423683
6	0xfa	-0.048363157
7	0xf1	-0.12090789
8	0x1d	0.23375526
9	0x1f	0.2498763
10	0x06	0.048363157
11	0xe1	-0.2498763
12	0xe2	-0.24181578
13	0xec	-0.16121052
14	0x01	0.008060526
15	0xf4	-0.09672631
16	0x16	0.17733157
17	0xd0	-0.38690525
18	0x13	0.15314999
19	0x19	0.20151316
20	0x00	0.0
21	0x28	0.32242104
22	0x00	0.0
23	0x45	0.5561763
24	0xe8	-0.19345263
25	0x16	0.17733157
26	0x11	0.13702895
27	0xda	-0.30629998
28	0x0a	0.08060526
29	0x99	-0.83023417
30	0xe0	-0.25793684
31	0xbc	-0.5481158
32	0xf6	-0.08060526
33	0xd4	-0.35466313
34	0x1d	0.23375526
35	0xe5	-0.2176342
36	0xef	-0.13702895
37	0x0d	0.10478684
38	0xd6	-0.3385421
39	0xd3	-0.36272368
40	0xf5	-0.08866578
41	0x05	0.04030263
42	0xc5	-0.47557104
43	0x19	0.20151316
44	0x19	0.20151316
45	0x09	0.07254474
46	0xfb	-0.04030263
47	0x0d	0.10478684
48	0x0a	0.08060526
49	0xe7	-0.20151316
50	0xe6	-0.20957369
51	0x06	0.048363157
52	0xec	-0.16121052
53	0x07	0.056423683
54	0x11	0.13702895
55	0xe9	-0.1853921
56	0xf7	-0.07254474
57	0x1a	0.20957369
58	0xf1	-0.12090789
59	0x27	0.31436053
60	0xe9	-0.1853921
61	0xfc	-0.032242104
62	0x08	0.06448421
63	0x1d	0.23375526
64	0x06	0.048363157
65	0x07	0.056423683
66	0xef	-0.13702895
67	0x0b	0.08866578
68	0xe4	-0.22569473
69	0x07	0.056423683
70	0x1b	0.2176342
71	0xf4	-0.09672631
72	0x2b	0.34660262
73	0x06	0.048363157
74	0xeb	-0.16927105
75	0x0a	0.08060526
76	0x25	0.29823947
77	0x01	0.008060526
78	0x23	0.2821184
79	0x17	0.1853921
80	0x06	0.048363157
81	0x2c	0.35466313
82	0x12	0.14508948
83	0xe2	-0.24181578
84	0xee	-0.14508948
85	0xd0	-0.38690525
86	0xa2	-0.7576895
87	0x0a	0.08060526
88	0xc3	-0.4916921
89	0x0c	0.09672631
90	0x0f	0.12090789
91	0x08	0.06448421
92	0xfa	-0.048363157
93	0xc5	-0.47557104
94	0x1f	0.2498763
95	0x22	0.2740579
96	0x05	0.04030263
97	0xd0	-0.38690525
98	0x13	0.15314999
99	0xc5	-0.47557104
100	0x25	0.29823947
101	0xe2	-0.24181578
102	0x0f	0.12090789
103	0xca	-0.4352684
104	0x08	0.06448421
105	0xfe	-0.016121052
106	0x43	0.5400553
107	0xe8	-0.19345263
108	0x08	0.06448421
109	0xf6	-0.08060526
110	0xfb	-0.04030263
111	0xc7	-0.45944998
112	0xcc	-0.41914737
113	0x18	0.19345263
114	0xfc	-0.032242104
115	0xeb	-0.16927105
116	0xd4	-0.35466313
117	0xfb	-0.04030263
118	0xef	-0.13702895
119	0x18	0.19345263
120	0x32	0.4030263
121	0x04	0.032242104
122	0xec	-0.16121052
123	0x04	0.032242104
124	0x13	0.15314999
125	0x18	0.19345263
126	0xcc	-0.41914737
127	0xed	-0.15314999
128	0xb6	-0.59647894
129	0xfd	-0.024181578
130	0x13	0.15314999
131	0xc8	-0.45138946
132	0xc8	-0.45138946
133	0xbb	-0.5561763
134	0xe8	-0.19345263
135	0x08	0.06448421
136	0xf9	-0.056423683
137	0x09	0.07254474
138	0xe1	-0.2498763
139	0x04	0.032242104
140	0xf8	-0.06448421
141	0x04	0.032242104
142	0x19	0.20151316
143	0xe2	-0.24181578
144	0x12	0.14508948
145	0xb4	-0.61259997
146	0x23	0.2821184
147	0xb9	-0.57229733
148	0xda	-0.30629998
149	0x17	0.1853921
150	0x14	0.16121052
151	0x14	0.16121052
152	0x24	0.29017895
153	0xf7	-0.07254474
154	0x08	0.06448421
155	0xb0	-0.6448421
156	0x05	0.04030263
157	0xf6	-0.08060526
158	0x0c	0.09672631
159	0xfd	-0.024181578
160	0x29	0.33048156
161	0xe5	-0.2176342
162	0x30	0.38690525
163	0x0f	0.12090789
164	0xd8	-0.32242104
165	0x27	0.31436053
166	0xc7	-0.45944998
167	0xbf	-0.5239342
168	0xac	-0.6770842
169	0x25	0.29823947
170	0x16	0.17733157
171	0x07	0.056423683
172	0x15	0.16927105
173	0xda	-0.30629998
174	0xd0	-0.38690525
175	0x13	0.15314999
176	0x04	0.032242104
177	0x21	0.26599735
178	0x31	0.39496577
179	0x93	-0.8785973
180	0x25	0.29823947
181	0xbb	-0.5561763
182	0x14	0.16121052
183	0x02	0.016121052
184	0xd5	-0.34660262
185	0x01	0.008060526
186	0xea	-0.17733157
187	0xd3	-0.36272368
188	0x08	0.06448421
189	0xd1	-0.37884474
190	0x1e	0.24181578
191	0xeb	-0.16927105
192	0x1e	0.24181578
193	0x09	0.07254474
194	0x18	0.19345263
195	0xf2	-0.112847365
196	0xd8	-0.32242104
197	0xd6	-0.3385421
198	0x0c	0.09672631
199	0x03	0.024181578
200	0x1d	0.23375526
201	0xf8	-0.06448421
202	0xf4	-0.09672631
203	0xbc	-0.5481158
204	0xef	-0.13702895
205	0x15	0.16927105
206	0xe3	-0.23375526
207	0x02	0.016121052
208	0xe6	-0.20957369
209	0x09	0.07254474
210	0x0a	0.08060526
211	0x03	0.024181578
212	0xa4	-0.7415684
213	0x12	0.14508948
214	0x11	0.13702895
215	0xea	-0.17733157
216	0xd1	-0.37884474
217	0xf3	-0.10478684
218	0x1f	0.2498763
219	0xe7	-0.20151316
220	0xda	-0.30629998
221	0xef	-0.13702895
222	0x10	0.12896842
223	0xe3	-0.23375526
224	0xe4	-0.22569473
225	0xd7	-0.33048156
226	0xc6	-0.46751052
227	0xea	-0.17733157
228	0xe1	-0.2498763
229	0x13	0.15314999
230	0x31	0.39496577
231	0xed	-0.15314999
232	0x18	0.19345263
233	0xda	-0.30629998
234	0xe5	-0.2176342
235	0xcf	-0.39496577
236	0x1e	0.24181578
237	0xe5	-0.2176342
238	0xd3	-0.36272368
239	0xbe	-0.5319947
240	0xff	-0.008060526
241	0x0d	0.10478684
242	0x16	0.17733157
243	0xd1	-0.37884474
244	0xbd	-0.5400553
245	0x19	0.20151316
246	0xc2	-0.4997526
247	0xe6	-0.20957369
248	0xcc	-0.41914737
249	0xee	-0.14508948
250	0x18	0.19345263
251	0xc1	-0.50781316
252	0x22	0.2740579
253	0xf1	-0.12090789
254	0xd7	-0.33048156
255	0x29	0.33048156

sequential_3/sequential_2/conv2d_2/Conv2D i1 [2, 3, 3, 3]
0	0xab	-85
1	0xe2	-30
2	0xab	-85
3	0x04	4
4	0x40	64
5	0x44	68
6	0x23	35
7	0x4d	77
8	0x0f	15
9	0xa9	-87
10	0x91	-111
11	0x21	33
12	0xbd	-67
13	0xa1	-95
14	0xb3	-77
15	0x7f	127
16	0x2d	45
17	0x49	73
18	0xff	-1
19	0x22	34
20	0xc5	-59
21	0x59	89
22	0xef	-17
23	0x34	52
24	0xc4	-60
25	0x9d	-99
26	0x2d	45
27	0xf4	-12
28	0x00	0
29	0x34	52
30	0xed	-19
31	0x1e	30
32	0xce	-50
33	0xcc	-52
34	0x0c	12
35	0xdd	-35
36	0x7f	127
37	0x45	69
38	0x7b	123
39	0x2e	46
40	0xfb	-5
41	0x17	23
42	0x0c	12
43	0x14	20
44	0xd4	-44
45	0x42	66
46	0xe3	-29
47	0x5f	95
48	0x58	88
49	0x17	23
50	0xf4	-12
51	0xcb	-53
52	0xcf	-49
53	0xd4	-44

sequential_3/sequential_2/conv2d_3/Conv2D i1 [1, 3, 3, 2] scale=0.012129771 zero_point=0
0	0xe0	-0.38815266
1	0x01	0.012129771
2	0x9e	-1.1887175
3	0xcf	-0.59435874
4	0x13	0.23046564
5	0xe2	-0.36389312
6	0x1c	0.33963358
7	0xff	-0.012129771
8	0xd0	-0.582229
9	0xf1	-0.18194656
10	0xd7	-0.4973206
11	0xe8	-0.2911145
12	0x19	0.30324426
13	0x2f	0.57009923
14	0x81	-1.5404809
15	0x41	0.7884351
16	0xdc	-0.43667173
17	0xfb	-0.06064885
