tensorflow/model.tflite (tflite, 104640 bytes, 4 tensors)

sequential_7/sequential_6/dense_6/MatMul i1 [80, 1200] scale=0.005525213 zero_point=0
000000 01 f6 fc 03 05 07 f5 f7 f7 ef f3 fe fa fb f6 f1
       0.005525213 -0.05525213 -0.022100853 0.01657564 0.027626066 0.038676493 -0.060777344 -0.04972692 -0.04972692 -0.09392863 -0.07182777 -0.011050426 -0.03315128 -0.027626066 -0.05525213 -0.082878195
000010 f7 fd 0a ff e6 fc 0b 0d eb f6 09 09 13 07 08 fd
       -0.04972692 -0.01657564 0.05525213 -0.005525213 -0.14365554 -0.022100853 0.060777344 0.07182777 -0.11602948 -0.05525213 0.04972692 0.04972692 0.10497905 0.038676493 0.044201706 -0.01657564
000020 03 02 06 0b f6 08 fe fe ee df 02 43 2c e2 d3 0a
       0.01657564 0.011050426 0.03315128 0.060777344 -0.05525213 0.044201706 -0.011050426 -0.011050426 -0.09945384 -0.18233204 0.011050426 0.37018928 0.24310938 -0.16575639 -0.24863459 0.05525213
000030 0e e4 da 20 1e 10 fe 13 13 03 fd df 0f 18 00 01
       0.077352986 -0.15470597 -0.2099581 0.17680682 0.16575639 0.08840341 -0.011050426 0.10497905 0.10497905 0.01657564 -0.01657564 -0.18233204 0.082878195 0.13260512 0.0 0.005525213
000040 01 07 2c 14 06 06 03 02 fd 13 fc f9 f6 05 ee fb
       0.005525213 0.038676493 0.24310938 0.11050426 0.03315128 0.03315128 0.01657564 0.011050426 -0.01657564 0.10497905 -0.022100853 -0.038676493 -0.05525213 0.027626066 -0.09945384 -0.027626066
000050 fb d6 eb 0f 24 18 e0 0f e1 00 fb 08 0f 18 05 14
       -0.027626066 -0.23205896 -0.11602948 0.082878195 0.19890767 0.13260512 -0.17680682 0.082878195 -0.1712816 0.0 -0.027626066 0.044201706 0.082878195 0.13260512 0.027626066 0.11050426
000060 05 12 07 02 f4 00 e1 d9 fd ee 0d f5 e8 f9 03 06
       0.027626066 0.09945384 0.038676493 0.011050426 -0.06630256 0.0 -0.1712816 -0.21548331 -0.01657564 -0.09945384 0.07182777 -0.060777344 -0.13260512 -0.038676493 0.01657564 0.03315128
000070 04 f4 f8 fa 0d 07 14 e7 0b f9 1b fd 33 21 ed 0d
       0.022100853 -0.06630256 -0.044201706 -0.03315128 0.07182777 0.038676493 0.11050426 -0.13813034 0.060777344 -0.038676493 0.14918076 -0.01657564 0.28178588 0.18233204 -0.10497905 0.07182777
000080 f1 fd f7 f1 0d 04 0c fe fd 01 13 f7 13 19 0d 17
       -0.082878195 -0.01657564 -0.04972692 -0.082878195 0.07182777 0.022100853 0.06630256 -0.011050426 -0.01657564 0.005525213 0.10497905 -0.04972692 0.10497905 0.13813034 0.07182777 0.1270799
000090 13 03 e6 fd f8 ea ee 0e f2 ed f2 00 0c fe ef 05
       0.10497905 0.01657564 -0.14365554 -0.01657564 -0.044201706 -0.12155469 -0.09945384 0.077352986 -0.077352986 -0.10497905 -0.077352986 0.0 0.06630256 -0.011050426 -0.09392863 0.027626066
0000a0 0b 11 14 06 1b 01 e6 28 0f fa 23 0c 0d 14 ef 03
       0.060777344 0.09392863 0.11050426 0.03315128 0.14918076 0.005525213 -0.14365554 0.22100852 0.082878195 -0.03315128 0.19338246 0.06630256 0.07182777 0.11050426 -0.09392863 0.01657564
0000b0 07 1e 11 04 12 1f fd 08 10 fc 01 0f 09 07 14 0d
       0.038676493 0.16575639 0.09392863 0.022100853 0.09945384 0.1712816 -0.01657564 0.044201706 0.08840341 -0.022100853 0.005525213 0.082878195 0.04972692 0.038676493 0.11050426 0.07182777
0000c0 0d 08 07 fa f6 de ef fe 08 f7 14 f6 f6 06 df 06
       0.07182777 0.044201706 0.038676493 -0.03315128 -0.05525213 -0.18785726 -0.09392863 -0.011050426 0.044201706 -0.04972692 0.11050426 -0.05525213 -0.05525213 0.03315128 -0.18233204 0.03315128
0000d0 07 09 18 06 f4 eb e7 fc 16 13 ed e9 17 fa 04 01
       0.038676493 0.04972692 0.13260512 0.03315128 -0.06630256 -0.11602948 -0.13813034 -0.022100853 0.12155469 0.10497905 -0.10497905 -0.1270799 0.1270799 -0.03315128 0.022100853 0.005525213
0000e0 00 f9 f9 03 02 06 07 06 0d 06 06 08 0e e4 eb ce
       0.0 -0.038676493 -0.038676493 0.01657564 0.011050426 0.03315128 0.038676493 0.03315128 0.07182777 0.03315128 0.03315128 0.044201706 0.077352986 -0.15470597 -0.11602948 -0.27626067
0000f0 0a 09 14 f9 f6 ed e5 1f ff 08 1f 04 e0 e6 d2 f0
       0.05525213 0.04972692 0.11050426 -0.038676493 -0.05525213 -0.10497905 -0.14918076 0.1712816 -0.005525213 0.044201706 0.1712816 0.022100853 -0.17680682 -0.14365554 -0.2541598 -0.08840341

sequential_7/sequential_6/dense_7/MatMul i1 [40, 80] scale=0.00632138 zero_point=0
000000 d0 f4 06 27 f6 ef 0a 00 0a 0c 05 02 eb e9 10 ff
       -0.30342624 -0.07585656 0.03792828 0.24653381 -0.063213795 -0.10746346 0.063213795 0.0 0.063213795 0.07585656 0.031606898 0.01264276 -0.13274898 -0.14539173 0.10114208 -0.00632138
000010 fb 15 e7 f1 e1 f0 18 f6 f7 4d ed f5 11 1b 2d e9
       -0.031606898 0.13274898 -0.1580345 -0.0948207 -0.19596277 -0.10114208 0.15171312 -0.063213795 -0.056892417 0.48674625 -0.12010622 -0.06953518 0.10746346 0.17067726 0.2844621 -0.14539173
000020 02 ea e7 0f f2 e6 18 15 0c e1 e2 00 f3 14 ee fa
       0.01264276 -0.13907036 -0.1580345 0.0948207 -0.08849932 -0.16435587 0.15171312 0.13274898 0.07585656 -0.19596277 -0.1896414 0.0 -0.08217794 0.12642759 -0.113784835 -0.03792828
000030 e5 13 09 f2 eb 22 ff fd f1 ed f2 07 02 e6 17 04
       -0.17067726 0.12010622 0.056892417 -0.08849932 -0.13274898 0.21492691 -0.00632138 -0.01896414 -0.0948207 -0.12010622 -0.08849932 0.04424966 0.01264276 -0.16435587 0.14539173 0.02528552
000040 1b f6 0c 13 e5 14 15 e5 1d 05 e6 17 fd 50 ee ce
       0.17067726 -0.063213795 0.07585656 0.12010622 -0.17067726 0.12642759 0.13274898 -0.17067726 0.18332002 0.031606898 -0.16435587 0.14539173 -0.01896414 0.50571036 -0.113784835 -0.316069
000050 f7 f6 b9 fa 08 17 08 eb 13 07 07 ff eb eb e4 11
       -0.056892417 -0.063213795 -0.44881797 -0.03792828 0.05057104 0.14539173 0.05057104 -0.13274898 0.12010622 0.04424966 0.04424966 -0.00632138 -0.13274898 -0.13274898 -0.17699865 0.10746346
000060 fb 17 22 1b 01 17 ff 13 00 e6 e4 ec e2 da fc 15
       -0.031606898 0.14539173 0.21492691 0.17067726 0.00632138 0.14539173 -0.00632138 0.12010622 0.0 -0.16435587 -0.17699865 -0.12642759 -0.1896414 -0.24021244 -0.02528552 0.13274898
000070 25 19 e1 ee f1 e1 1b 05 e3 e5 18 e2 e6 d9 1e d9
       0.23389105 0.1580345 -0.19596277 -0.113784835 -0.0948207 -0.19596277 0.17067726 0.031606898 -0.18332002 -0.17067726 0.15171312 -0.1896414 -0.16435587 -0.24653381 0.1896414 -0.24653381
000080 19 f9 e7 0b ed 0f 08 ee 30 23 f6 04 10 f3 0a f2
       0.1580345 -0.04424966 -0.1580345 0.06953518 -0.12010622 0.0948207 0.05057104 -0.113784835 0.30342624 0.2212483 -0.063213795 0.02528552 0.10114208 -0.08217794 0.063213795 -0.08849932
000090 db ec f5 ef 1d 2a f0 1c 1a b9 20 22 f4 d8 fe df
       -0.23389105 -0.12642759 -0.06953518 -0.10746346 0.18332002 0.26549795 -0.10114208 0.17699865 0.16435587 -0.44881797 0.20228416 0.21492691 -0.07585656 -0.25285518 -0.01264276 -0.20860554
0000a0 f2 1a e2 03 00 e4 11 e4 fc 06 ef 12 19 f6 da 03
       -0.08849932 0.16435587 -0.1896414 0.01896414 0.0 -0.17699865 0.10746346 -0.17699865 -0.02528552 0.03792828 -0.10746346 0.113784835 0.1580345 -0.063213795 -0.24021244 0.01896414
0000b0 17 10 1e 2b e6 19 e7 ff ef f8 05 0a d1 dd 1e f4
       0.14539173 0.10114208 0.1896414 0.27181932 -0.16435587 0.1580345 -0.1580345 -0.00632138 -0.10746346 -0.05057104 0.031606898 0.063213795 -0.29710487 -0.2212483 0.1896414 -0.07585656
0000c0 1b 02 00 06 22 21 17 fc 1c f2 dd d4 e2 d5 02 d8
       0.17067726 0.01264276 0.0 0.03792828 0.21492691 0.20860554 0.14539173 -0.02528552 0.17699865 -0.08849932 -0.2212483 -0.27814072 -0.1896414 -0.27181932 0.01264276 -0.25285518
0000d0 06 04 05 04 fa f5 05 16 32 16 14 fc e5 10 fb 10
       0.03792828 0.02528552 0.031606898 0.02528552 -0.03792828 -0.06953518 0.031606898 0.13907036 0.316069 0.13907036 0.12642759 -0.02528552 -0.17067726 0.10114208 -0.031606898 0.10114208
0000e0 f0 df fa 05 04 29 f0 02 09 a9 0c 1a e8 fe f3 f4
       -0.10114208 -0.20860554 -0.03792828 0.031606898 0.02528552 0.25917658 -0.10114208 0.01264276 0.056892417 -0.5499601 0.07585656 0.16435587 -0.15171312 -0.01264276 -0.08217794 -0.07585656
0000f0 d3 0b f1 03 04 10 ee fe ce f6 e5 f9 12 e3 13 d5
       -0.2844621 0.06953518 -0.0948207 0.01896414 0.02528552 0.10114208 -0.113784835 -0.01264276 -0.316069 -0.063213795 -0.17067726 -0.04424966 0.113784835 -0.18332002 0.12010622 -0.27181932

sequential_7/sequential_6/conv2d_6/Conv2D i1 [2, 3, 3, 3]
000000 dd e8 81 19 d8 4c fc fa b1 9c b2 8e 49 59 e9 03
       -35 -24 -127 25 -40 76 -4 -6 -79 -100 -78 -114 73 89 -23 3
000010 68 00 07 28 e8 5f 66 74 20 f6 1f 3e 25 66 30 6d
       104 0 7 40 -24 95 102 116 32 -10 31 62 37 102 48 109
000020 7f 3f 52 72 28 fe 26 33 df 01 09 18 06 f5 0d 2f
       127 63 82 114 40 -2 38 51 -33 1 9 24 6 -11 13 47
000030 22 e7 c6 cb ba dc
       34 -25 -58 -53 -70 -36

sequential_7/sequential_6/conv2d_7/Conv2D i1 [1, 3, 3, 2] scale=0.008506723 zero_point=0
000000 6e a8 74 df 5d b2 67 08 1d 4b 7f e4 2b 12 0b d0
       0.9357395 -0.7485916 0.9867798 -0.28072184 0.79112524 -0.6635244 0.87619245 0.06805378 0.24669495 0.6380042 1.0803537 -0.23818824 0.3657891 0.15312101 0.09357395 -0.4083227
000010 6e 37
       0.9357395 0.46786976
