tensorflow/model.tflite (tflite, 104720 bytes, 4 tensors)

sequential_11/sequential_10/dense_10/MatMul i1 [80, 1200] scale=0.0076612066 zero_point=0
000000 04 f6 f6 f7 ff f9 02 f6 f9 f4 02 ff f8 fd 00 fb
       0.030644827 -0.07661207 -0.07661207 -0.06895086 -0.0076612066 -0.053628445 0.015322413 -0.07661207 -0.053628445 -0.09193448 0.015322413 -0.0076612066 -0.061289653 -0.02298362 0.0 -0.038306035
000010 02 00 fc fc 00 fb f6 06 fd f6 fc fc 00 fa 02 f8
       0.015322413 0.0 -0.030644827 -0.030644827 0.0 -0.038306035 -0.07661207 0.04596724 -0.02298362 -0.07661207 -0.030644827 -0.030644827 0.0 -0.04596724 0.015322413 -0.061289653
000020 02 fe f9 01 ff 06 f7 f3 07 f9 06 fb 03 03 f8 03
       0.015322413 -0.015322413 -0.053628445 0.0076612066 -0.0076612066 0.04596724 -0.06895086 -0.09959569 0.053628445 -0.053628445 0.04596724 -0.038306035 0.02298362 0.02298362 -0.061289653 0.02298362
000030 f4 ff fc f7 f7 f8 fd fc 02 04 fa 05 f8 f8 01 07
       -0.09193448 -0.0076612066 -0.030644827 -0.06895086 -0.06895086 -0.061289653 -0.02298362 -0.030644827 0.015322413 0.030644827 -0.04596724 0.038306035 -0.061289653 -0.061289653 0.0076612066 0.053628445
000040 fe fe 05 07 05 02 f5 01 07 f5 02 ff f9 f8 ff fd
       -0.015322413 -0.015322413 0.038306035 0.053628445 0.038306035 0.015322413 -0.08427327 0.0076612066 0.053628445 -0.08427327 0.015322413 -0.0076612066 -0.053628445 -0.061289653 -0.0076612066 -0.02298362
000050 07 fe 00 05 03 f9 03 f7 fa f9 04 03 f6 fc f7 ff
       0.053628445 -0.015322413 0.0 0.038306035 0.02298362 -0.053628445 0.02298362 -0.06895086 -0.04596724 -0.053628445 0.030644827 0.02298362 -0.07661207 -0.030644827 -0.06895086 -0.0076612066
000060 04 fd f9 01 fd f3 04 f9 f9 f5 05 fc 03 fa f9 f8
       0.030644827 -0.02298362 -0.053628445 0.0076612066 -0.02298362 -0.09959569 0.030644827 -0.053628445 -0.053628445 -0.08427327 0.038306035 -0.030644827 0.02298362 -0.04596724 -0.053628445 -0.061289653
000070 ff f8 fd f4 00 02 fd fb 00 05 05 01 fc 00 fa f6
       -0.0076612066 -0.061289653 -0.02298362 -0.09193448 0.0 0.015322413 -0.02298362 -0.038306035 0.0 0.038306035 0.038306035 0.0076612066 -0.030644827 0.0 -0.04596724 -0.07661207
000080 f7 fe f6 f7 fe 03 fd 01 fa 06 f7 08 06 f4 ff f8
       -0.06895086 -0.015322413 -0.07661207 -0.06895086 -0.015322413 0.02298362 -0.02298362 0.0076612066 -0.04596724 0.04596724 -0.06895086 0.061289653 0.04596724 -0.09193448 -0.0076612066 -0.061289653
000090 01 fb fc 03 01 f8 f5 f5 00 f5 fa fe 06 06 f8 fe
       0.0076612066 -0.038306035 -0.030644827 0.02298362 0.0076612066 -0.061289653 -0.08427327 -0.08427327 0.0 -0.08427327 -0.04596724 -0.015322413 0.04596724 0.04596724 -0.061289653 -0.015322413
0000a0 f7 fd f6 fc 00 f6 f8 fa fd fd f8 01 01 f7 fb 05
       -0.06895086 -0.02298362 -0.07661207 -0.030644827 0.0 -0.07661207 -0.061289653 -0.04596724 -0.02298362 -0.02298362 -0.061289653 0.0076612066 0.0076612066 -0.06895086 -0.038306035 0.038306035
0000b0 01 00 fa 08 fb 04 f9 07 f9 f7 05 f8 fa 03 f7 fb
       0.0076612066 0.0 -0.04596724 0.061289653 -0.038306035 0.030644827 -0.053628445 0.053628445 -0.053628445 -0.06895086 0.038306035 -0.061289653 -0.04596724 0.02298362 -0.06895086 -0.038306035
0000c0 04 02 07 f7 f6 fc ff f4 06 f7 05 fd f5 04 fd fe
       0.030644827 0.015322413 0.053628445 -0.06895086 -0.07661207 -0.030644827 -0.0076612066 -0.09193448 0.04596724 -0.06895086 0.038306035 -0.02298362 -0.08427327 0.030644827 -0.02298362 -0.015322413
0000d0 fe 01 fd 07 f8 f9 01 05 fb 07 fe f8 05 05 fa 01
       -0.015322413 0.0076612066 -0.02298362 0.053628445 -0.061289653 -0.053628445 0.0076612066 0.038306035 -0.038306035 0.053628445 -0.015322413 -0.061289653 0.038306035 0.038306035 -0.04596724 0.0076612066
0000e0 03 fc f9 01 f8 f5 f2 f8 fb f7 f7 04 fa fa fe ff
       0.02298362 -0.030644827 -0.053628445 0.0076612066 -0.061289653 -0.08427327 -0.10725689 -0.061289653 -0.038306035 -0.06895086 -0.06895086 0.030644827 -0.04596724 -0.04596724 -0.015322413 -0.0076612066
0000f0 02 04 ff 01 00 fc 00 03 fb 03 f9 fb ff ff 05 f8
       0.015322413 0.030644827 -0.0076612066 0.0076612066 0.0 -0.030644827 0.0 0.02298362 -0.038306035 0.02298362 -0.053628445 -0.038306035 -0.0076612066 -0.0076612066 0.038306035 -0.061289653

sequential_11/sequential_10/dense_11/MatMul i1 [40, 80] scale=0.0063128597 zero_point=0
000000 ee 29 df 10 2d fc fd dc f0 21 fd 11 0d 0b 01 ec
       -0.11363147 0.25882724 -0.20832437 0.101005755 0.2840787 -0.025251439 -0.018938579 -0.22726294 -0.101005755 0.20832437 -0.018938579 0.10731862 0.08206718 0.06944146 0.0063128597 -0.1262572
000010 0f 13 05 11 e1 13 fd 0a 18 28 e8 ff 06 e8 e9 e5
       0.09469289 0.119944334 0.0315643 0.10731862 -0.19569865 0.119944334 -0.018938579 0.0631286 0.15150863 0.2525144 -0.15150863 -0.0063128597 0.037877157 -0.15150863 -0.14519577 -0.17044722
000020 e4 12 13 e3 0b de c3 ff e9 e6 15 f5 e8 1b 13 0b
       -0.17676008 0.11363147 0.119944334 -0.18307292 0.06944146 -0.21463723 -0.38508445 -0.0063128597 -0.14519577 -0.16413435 0.13257006 -0.06944146 -0.15150863 0.17044722 0.119944334 0.06944146
000030 f7 18 e0 f4 1c ec dd f9 e1 1d 14 e6 2c 11 15 0c
       -0.056815736 0.15150863 -0.20201151 -0.075754315 0.17676008 -0.1262572 -0.2209501 -0.04419002 -0.19569865 0.18307292 0.1262572 -0.16413435 0.27776584 0.10731862 0.13257006 0.075754315
000040 0a 09 c8 ec 05 e7 fb 51 eb 0a 0d 05 f1 11 fb 12
       0.0631286 0.056815736 -0.35352015 -0.1262572 0.0315643 -0.15782149 -0.0315643 0.51134163 -0.13257006 0.0631286 0.08206718 0.0315643 -0.09469289 0.10731862 -0.0315643 0.11363147
000050 f7 26 1d 20 c5 0f 0d ff de 21 13 ed ca 14 07 db
       -0.056815736 0.23988867 0.18307292 0.20201151 -0.37245873 0.09469289 0.08206718 -0.0063128597 -0.21463723 0.20832437 0.119944334 -0.119944334 -0.34089443 0.1262572 0.04419002 -0.2335758
000060 10 d3 d8 2a 1f fa 1d ce 27 07 df e3 14 0e 0e f6
       0.101005755 -0.2840787 -0.2525144 0.26514012 0.19569865 -0.037877157 0.18307292 -0.31564298 0.24620153 0.04419002 -0.20832437 -0.18307292 0.1262572 0.08838004 0.08838004 -0.0631286
000070 16 f5 f3 09 22 0a ff 00 0f df ea 11 01 e3 0f f7
       0.13888292 -0.06944146 -0.08206718 0.056815736 0.21463723 0.0631286 -0.0063128597 0.0 0.09469289 -0.20832437 -0.13888292 0.10731862 0.0063128597 -0.18307292 0.09469289 -0.056815736
000080 07 e4 09 fb fa 0c e9 00 ee d8 0a f9 c9 12 ef 05
       0.04419002 -0.17676008 0.056815736 -0.0315643 -0.037877157 0.075754315 -0.14519577 0.0 -0.11363147 -0.2525144 0.0631286 -0.04419002 -0.34720728 0.11363147 -0.10731862 0.0315643
000090 10 15 04 ec c3 20 cb f5 18 fa 02 e3 01 e7 fe d8
       0.101005755 0.13257006 0.025251439 -0.1262572 -0.38508445 0.20201151 -0.33458155 -0.06944146 0.15150863 -0.037877157 0.012625719 -0.18307292 0.0063128597 -0.15782149 -0.012625719 -0.2525144
0000a0 17 2d 12 1e b1 17 fc 07 fc 15 ec e5 c9 ec f1 fa
       0.14519577 0.2840787 0.11363147 0.18938579 -0.4987159 0.14519577 -0.025251439 0.04419002 -0.025251439 0.13257006 -0.1262572 -0.17044722 -0.34720728 -0.1262572 -0.09469289 -0.037877157
0000b0 fe db c1 22 0c 06 09 c5 1e ee e5 0f 22 f0 fe 07
       -0.012625719 -0.2335758 -0.39771017 0.21463723 0.075754315 0.037877157 0.056815736 -0.37245873 0.18938579 -0.11363147 -0.17044722 0.09469289 0.21463723 -0.101005755 -0.012625719 0.04419002
0000c0 fb d1 ee e2 02 0c 03 e9 fc 02 ee 1a 10 e5 19 ef
       -0.0315643 -0.2967044 -0.11363147 -0.18938579 0.012625719 0.075754315 0.018938579 -0.14519577 -0.025251439 0.012625719 -0.11363147 0.16413435 0.101005755 -0.17044722 0.15782149 -0.10731862
0000d0 1b eb f5 e0 f9 e4 f4 0b fa e3 0e f3 eb 16 fc 04
       0.17044722 -0.13257006 -0.06944146 -0.20201151 -0.04419002 -0.17676008 -0.075754315 0.06944146 -0.037877157 -0.18307292 0.08838004 -0.08206718 -0.13257006 0.13888292 -0.025251439 0.025251439
0000e0 15 0b 06 12 d1 19 f0 e7 e9 10 02 e3 ea ec 1d ed
       0.13257006 0.06944146 0.037877157 0.11363147 -0.2967044 0.15782149 -0.101005755 -0.15782149 -0.14519577 0.101005755 0.012625719 -0.18307292 -0.13888292 -0.1262572 0.18307292 -0.119944334
0000f0 f4 2d 02 fb d6 2a 01 fd ff df e3 e9 c0 05 c4 0c
       -0.075754315 0.2840787 0.012625719 -0.0315643 -0.26514012 0.26514012 0.0063128597 -0.018938579 -0.0063128597 -0.20832437 -0.18307292 -0.14519577 -0.40402302 0.0315643 -0.37877157 0.075754315

sequential_11/sequential_10/conv2d_10/Conv2D i1 [2, 3, 3, 3]
000000 6e b7 7f 04 46 96 a5 ae 22 4b 35 6e ae f4 19 86
       110 -73 127 4 70 -106 -91 -82 34 75 53 110 -82 -12 25 -122
000010 09 30 1a 05 74 e4 b1 13 ab da c6 25 49 60 2a ce
       9 48 26 5 116 -28 -79 19 -85 -38 -58 37 73 96 42 -50
000020 bc 0f 1f 98 66 79 1e ba ca ae d0 a8 10 7f 46 6a
       -68 15 31 -104 102 121 30 -70 -54 -82 -48 -88 16 127 70 106
000030 92 a2 b6 0d 0b 93
       -110 -94 -74 13 11 -109

sequential_11/sequential_10/conv2d_11/Conv2D i1 [1, 3, 3, 2] scale=0.010805001 zero_point=0
000000 46 32 e9 3c e8 3d 05 b4 30 4c fd 45 0e 93 2b 7f
       0.75635004 0.54025 -0.24851501 0.64830005 -0.25932002 0.65910506 0.054025 -0.82118005 0.51864004 0.82118005 -0.032415003 0.745545 0.15127 -1.1777451 0.46461502 1.3722351
000010 1f 49
       0.334955 0.788765
