tensorflow/model.tflite (tflite, 317920 bytes, 5 tensors)

sequential_25/dense_50/MatMul i1 [64, 4800] scale=0.004673847 zero_point=0
000000 fc f9 04 03 fb ff fd 02 f9 02 07 06 fb fa f9 06
       -0.018695388 -0.03271693 0.018695388 0.014021541 -0.023369234 -0.004673847 -0.014021541 0.009347694 -0.03271693 0.009347694 0.03271693 0.028043082 -0.023369234 -0.028043082 -0.03271693 0.028043082
000010 fa 06 fc 06 f8 05 05 04 06 06 06 04 f9 00 03 06
       -0.028043082 0.028043082 -0.018695388 0.028043082 -0.037390776 0.023369234 0.023369234 0.018695388 0.028043082 0.028043082 0.028043082 0.018695388 -0.03271693 0.0 0.014021541 0.028043082
000020 06 01 05 ff 04 fb 04 04 00 fa fc 01 ff 05 fb fe
       0.028043082 0.004673847 0.023369234 -0.004673847 0.018695388 -0.023369234 0.018695388 0.018695388 0.0 -0.028043082 -0.018695388 0.004673847 -0.004673847 0.023369234 -0.023369234 -0.009347694
000030 04 00 05 01 f9 07 fb fc 03 00 ff fc 06 06 fc 00
       0.018695388 0.0 0.023369234 0.004673847 -0.03271693 0.03271693 -0.023369234 -0.018695388 0.014021541 0.0 -0.004673847 -0.018695388 0.028043082 0.028043082 -0.018695388 0.0
000040 05 06 04 02 fe f9 fb 00 01 fd fa ff 05 fd fc 06
       0.023369234 0.028043082 0.018695388 0.009347694 -0.009347694 -0.03271693 -0.023369234 0.0 0.004673847 -0.014021541 -0.028043082 -0.004673847 0.023369234 -0.014021541 -0.018695388 0.028043082
000050 fa 05 00 00 01 00 00 03 fc f9 02 01 fa fc 05 f8
       -0.028043082 0.023369234 0.0 0.0 0.004673847 0.0 0.0 0.014021541 -0.018695388 -0.03271693 0.009347694 0.004673847 -0.028043082 -0.018695388 0.023369234 -0.037390776
000060 f9 05 fb fe 06 ff 02 fe ff 07 00 fd 07 03 fa 03
       -0.03271693 0.023369234 -0.023369234 -0.009347694 0.028043082 -0.004673847 0.009347694 -0.009347694 -0.004673847 0.03271693 0.0 -0.014021541 0.03271693 0.014021541 -0.028043082 0.014021541
000070 fa 01 01 ff fa 00 fd 02 00 03 ff 02 fe f8 fb fb
       -0.028043082 0.004673847 0.004673847 -0.004673847 -0.028043082 0.0 -0.014021541 0.009347694 0.0 0.014021541 -0.004673847 0.009347694 -0.009347694 -0.037390776 -0.023369234 -0.023369234
000080 04 00 03 fe ff fb fe ff 04 fe fd fc fb fa fa f9
       0.018695388 0.0 0.014021541 -0.009347694 -0.004673847 -0.023369234 -0.009347694 -0.004673847 0.018695388 -0.009347694 -0.014021541 -0.018695388 -0.023369234 -0.028043082 -0.028043082 -0.03271693
000090 06 05 f8 05 fb 00 ff fa fc fb f8 06 04 05 fe 01
       0.028043082 0.023369234 -0.037390776 0.023369234 -0.023369234 0.0 -0.004673847 -0.028043082 -0.018695388 -0.023369234 -0.037390776 0.028043082 0.018695388 0.023369234 -0.009347694 0.004673847
0000a0 02 02 00 04 fa 02 06 ff 02 fa 06 fc 01 00 00 ff
       0.009347694 0.009347694 0.0 0.018695388 -0.028043082 0.009347694 0.028043082 -0.004673847 0.009347694 -0.028043082 0.028043082 -0.018695388 0.004673847 0.0 0.0 -0.004673847
0000b0 f9 ff fe 07 fb 06 00 ff fa fe 00 fc fd 03 01 05
       -0.03271693 -0.004673847 -0.009347694 0.03271693 -0.023369234 0.028043082 0.0 -0.004673847 -0.028043082 -0.009347694 0.0 -0.018695388 -0.014021541 0.014021541 0.004673847 0.023369234
0000c0 f9 03 ff 05 06 fa fc 02 04 05 fa fc 05 fb 02 05
       -0.03271693 0.014021541 -0.004673847 0.023369234 0.028043082 -0.028043082 -0.018695388 0.009347694 0.018695388 0.023369234 -0.028043082 -0.018695388 0.023369234 -0.023369234 0.009347694 0.023369234
0000d0 04 04 02 f8 ff fb fc 07 06 05 fc fc f7 06 01 ff
       0.018695388 0.018695388 0.009347694 -0.037390776 -0.004673847 -0.023369234 -0.018695388 0.03271693 0.028043082 0.023369234 -0.018695388 -0.018695388 -0.042064622 0.028043082 0.004673847 -0.004673847
0000e0 06 fd ff fc fb fa 06 fe 02 06 05 fa fc 03 f9 07
       0.028043082 -0.014021541 -0.004673847 -0.018695388 -0.023369234 -0.028043082 0.028043082 -0.009347694 0.009347694 0.028043082 0.023369234 -0.028043082 -0.018695388 0.014021541 -0.03271693 0.03271693
0000f0 fc 04 fd fb 02 fc 04 01 00 01 fb 03 fd ff fb fa
       -0.018695388 0.018695388 -0.014021541 -0.023369234 0.009347694 -0.018695388 0.018695388 0.004673847 0.0 0.004673847 -0.023369234 0.014021541 -0.014021541 -0.004673847 -0.023369234 -0.028043082

sequential_25/dense_51/MatMul i1 [40, 64] scale=0.0054357336 zero_point=0
000000 25 08 15 13 e0 15 db ec 13 f3 05 11 16 26 d3 be
       0.20112215 0.04348587 0.114150405 0.103278935 -0.17394347 0.114150405 -0.20112215 -0.10871467 0.103278935 -0.07066454 0.027178667 0.09240747 0.11958614 0.20655787 -0.24460801 -0.35875842
000010 e7 10 09 fc e0 05 1f 0f e9 09 4d eb 1f 1e e0 e8
       -0.13589334 0.08697174 0.048921604 -0.021742934 -0.17394347 0.027178667 0.16850774 0.081536 -0.12502187 0.048921604 0.41855147 -0.114150405 0.16850774 0.163072 -0.17394347 -0.13045761
000020 fa ec da e7 0a fe de 27 ff db f0 1f fe e4 e5 17
       -0.032614402 -0.10871467 -0.20655787 -0.13589334 0.054357335 -0.010871467 -0.18481494 0.2119936 -0.0054357336 -0.20112215 -0.08697174 0.16850774 -0.010871467 -0.15220053 -0.1467648 0.12502187
000030 e7 0f 2a 1b 14 d6 11 12 e9 db 26 35 1d fb df 1e
       -0.13589334 0.081536 0.22830081 0.1467648 0.10871467 -0.22830081 0.09240747 0.09784321 -0.12502187 -0.20112215 0.20655787 0.2880939 0.15763627 -0.027178667 -0.17937921 0.163072
000040 e6 db 11 ff ee 22 1c fc 1d 2b ca d3 f8 10 f3 10
       -0.14132908 -0.20112215 0.09240747 -0.0054357336 -0.09784321 0.18481494 0.15220053 -0.021742934 0.15763627 0.23373654 -0.2935296 -0.24460801 -0.04348587 0.08697174 -0.07066454 0.08697174
000050 19 e2 0b e6 d9 1e e0 08 d4 f6 d9 e7 23 e4 21 fb
       0.13589334 -0.163072 0.05979307 -0.14132908 -0.2119936 0.163072 -0.17394347 0.04348587 -0.23917228 -0.054357335 -0.2119936 -0.13589334 0.19025068 -0.15220053 0.17937921 -0.027178667
000060 20 0d e9 1e d3 a5 2b ec 1b 09 db fa 03 e1 d4 0f
       0.17394347 0.07066454 -0.12502187 0.163072 -0.24460801 -0.49465176 0.23373654 -0.10871467 0.1467648 0.048921604 -0.20112215 -0.032614402 0.016307201 -0.16850774 -0.23917228 0.081536
000070 29 f1 0d 11 11 0d 25 10 fe dd 14 ef 06 27 20 f3
       0.22286507 -0.081536 0.07066454 0.09240747 0.09240747 0.07066454 0.20112215 0.08697174 -0.010871467 -0.19025068 0.10871467 -0.09240747 0.032614402 0.2119936 0.17394347 -0.07066454
000080 0d 0b 17 20 e9 1d eb d7 dc 14 b4 17 f1 f4 06 0b
       0.07066454 0.05979307 0.12502187 0.17394347 -0.12502187 0.15763627 -0.114150405 -0.22286507 -0.19568641 0.10871467 -0.41311574 0.12502187 -0.081536 -0.065228805 0.032614402 0.05979307
000090 f7 d6 e7 f7 fa 03 0b e4 ef ec f7 30 35 c7 fc f5
       -0.048921604 -0.22830081 -0.13589334 -0.048921604 -0.032614402 0.016307201 0.05979307 -0.15220053 -0.09240747 -0.10871467 -0.048921604 0.26091522 0.2880939 -0.3098368 -0.021742934 -0.05979307
0000a0 29 0f 18 f1 ed d5 d9 d0 1b ff 10 1d 11 10 03 1b
       0.22286507 0.081536 0.13045761 -0.081536 -0.103278935 -0.23373654 -0.2119936 -0.26091522 0.1467648 -0.0054357336 0.08697174 0.15763627 0.09240747 0.08697174 0.016307201 0.1467648
0000b0 e3 11 0b 26 d4 f0 22 04 00 27 06 ec eb ee 36 d3
       -0.15763627 0.09240747 0.05979307 0.20655787 -0.23917228 -0.08697174 0.18481494 0.021742934 0.0 0.2119936 0.032614402 -0.10871467 -0.114150405 -0.09784321 0.2935296 -0.24460801
0000c0 dc ea fa 08 0a 1c f8 ff ec 13 e4 f7 08 12 13 27
       -0.19568641 -0.11958614 -0.032614402 0.04348587 0.054357335 0.15220053 -0.04348587 -0.0054357336 -0.10871467 0.103278935 -0.15220053 -0.048921604 0.04348587 0.09784321 0.103278935 0.2119936
0000d0 cd b0 11 2a 25 2b 08 23 ff 17 f0 0d 25 e0 bc fb
       -0.27722242 -0.43485868 0.09240747 0.22830081 0.20112215 0.23373654 0.04348587 0.19025068 -0.0054357336 0.12502187 -0.08697174 0.07066454 0.20112215 -0.17394347 -0.3696299 -0.027178667
0000e0 0b 23 f3 d6 b5 14 13 14 f8 dc 09 1e f1 e4 15 db
       0.05979307 0.19025068 -0.07066454 -0.22830081 -0.40768 0.10871467 0.103278935 0.10871467 -0.04348587 -0.19568641 0.048921604 0.163072 -0.081536 -0.15220053 0.114150405 -0.20112215
0000f0 d7 fe f8 ce 24 e3 f4 cf e5 ee 34 fa eb f4 2f fc
       -0.22286507 -0.010871467 -0.04348587 -0.2717867 0.19568641 -0.15763627 -0.065228805 -0.26635095 -0.1467648 -0.09784321 0.28265816 -0.032614402 -0.114150405 -0.065228805 0.25547948 -0.021742934

sequential_25/conv2d_74/Conv2D i1 [4, 3, 3, 3]
000000 67 46 e1 25 2a ba b1 50 2d 93 99 fa 8f b3 d4 81
       103 70 -31 37 42 -70 -79 80 45 -109 -103 -6 -113 -77 -44 -127
000010 96 c4 e4 c8 3d 09 77 1f 06 7d 18 ec e2 04 30 40
       -106 -60 -28 -56 61 9 119 31 6 125 24 -20 -30 4 48 64
000020 17 77 63 79 29 d9 fd 72 20 f8 41 7f 79 09 cd da
       23 119 99 121 41 -39 -3 114 32 -8 65 127 121 9 -51 -38
000030 fa f5 11 38 3d 4c 0b 57 2e e3 29 f0 c4 e6 2d f2
       -6 -11 17 56 61 76 11 87 46 -29 41 -16 -60 -26 45 -14
000040 f9 62 1d c6 bc d0 07 b7 37 7f 23 05 f3 da ec bf
       -7 98 29 -58 -68 -48 7 -73 55 127 35 5 -13 -38 -20 -65
000050 00 6b 39 dd 39 d2 0a a1 f1 9b 10 0f 3e 71 f5 30
       0 107 57 -35 57 -46 10 -95 -15 -101 16 15 62 113 -11 48
000060 bf ac a8 53 cd cc 7f 5a 52 dc bc 01
       -65 -84 -88 83 -51 -52 127 90 82 -36 -68 1

sequential_25/conv2d_75/Conv2D i1 [8, 3, 3, 4]
000000 6a 25 16 26 1d e8 1b fb 19 e8 f9 d6 35 1b 53 41
       106 37 22 38 29 -24 27 -5 25 -24 -7 -42 53 27 83 65
000010 3b 0e 2a 0f 33 f5 ed ce 52 f4 2f 7f 0a e3 1d 21
       59 14 42 15 51 -11 -19 -50 82 -12 47 127 10 -29 29 33
000020 4b 1e cc fe f3 eb 35 66 1c c7 26 25 06 33 8f 36
       75 30 -52 -2 -13 -21 53 102 28 -57 38 37 6 51 -113 54
000030 e2 19 26 7f db e7 17 5f d5 3a ed d2 2b 03 10 21
       -30 25 38 127 -37 -25 23 95 -43 58 -19 -46 43 3 16 33
000040 d4 dd d7 0f fe ec c0 07 39 de fb fd f5 b4 28 35
       -44 -35 -41 15 -2 -20 -64 7 57 -34 -5 -3 -11 -76 40 53
000050 0f 20 de c7 2b 29 cf 07 5a d9 2f 7a 22 05 25 13
       15 32 -34 -57 43 41 -49 7 90 -39 47 122 34 5 37 19
000060 11 e0 d3 36 d7 f6 2c 7f 37 3e 11 2d f6 06 81 b1
       17 -32 -45 54 -41 -10 44 127 55 62 17 45 -10 6 -127 -79
000070 50 0c cc 20 5a ca 43 48 08 1a 9b 9d 02 36 ad 00
       80 12 -52 32 90 -54 67 72 8 26 -101 -99 2 54 -83 0
000080 29 29 06 2e 0c f1 a6 ac 11 2d c8 bc 35 10 16 03
       41 41 6 46 12 -15 -90 -84 17 45 -56 -68 53 16 22 3
000090 fa 30 db f8 54 49 e7 63 32 cb 7f 76 d8 0c cb c4
       -6 48 -37 -8 84 73 -25 99 50 -53 127 118 -40 12 -53 -60
0000a0 15 3b b7 32 09 b5 5e 7b e0 cb cb d2 26 15 98 e6
       21 59 -73 50 9 -75 94 123 -32 -53 -53 -46 38 21 -104 -26
0000b0 fd bd 4a 28 f0 00 89 47 73 2b c0 2a 3a 0b 1f 52
       -3 -67 74 40 -16 0 -119 71 115 43 -64 42 58 11 31 82
0000c0 46 18 bd e3 f9 06 b8 4c 25 25 25 7f cf 29 8c ae
       70 24 -67 -29 -7 6 -72 76 37 37 37 127 -49 41 -116 -82
0000d0 33 f0 c6 08 19 23 0c 61 11 2a ce 09 e8 c5 0b 60
       51 -16 -58 8 25 35 12 97 17 42 -50 9 -24 -59 11 96
0000e0 fb 46 e1 ee 74 2d e4 ce 59 dd 6a 7f 60 e3 e0 0a
       -5 70 -31 -18 116 45 -28 -50 89 -35 106 127 96 -29 -32 10
0000f0 38 10 1b e9 5d c4 16 76 14 f7 17 a3 41 02 3d 1e
       56 16 27 -23 93 -60 22 118 20 -9 23 -93 65 2 61 30

sequential_25/conv2d_76/Conv2D i1 [16, 3, 3, 8]
000000 e6 cb f0 09 29 10 1f 81 2f 0f 30 bb 9e d7 fe 56
       -26 -53 -16 9 41 16 31 -127 47 15 48 -69 -98 -41 -2 86
000010 cb de 07 2f ff 13 e2 37 dc be 1e f1 0b ed ed d4
       -53 -34 7 47 -1 19 -30 55 -36 -66 30 -15 11 -19 -19 -44
000020 34 3b 49 bb d1 d0 2e 64 a6 d6 bb 09 45 34 b5 f0
       52 59 73 -69 -47 -48 46 100 -90 -42 -69 9 69 52 -75 -16
000030 de 16 20 c2 20 da 18 0c d9 30 08 f4 dc 0e 18 5b
       -34 22 32 -62 32 -38 24 12 -39 48 8 -12 -36 14 24 91
000040 d1 b4 c6 26 1b ed d9 d9 0d d1 c1 d2 e0 f8 cd d6
       -47 -76 -58 38 27 -19 -39 -39 13 -47 -63 -46 -32 -8 -51 -42
000050 df ae c2 5b 00 2f 98 06 54 3a 5b 3c 1b ed 15 be
       -33 -82 -62 91 0 47 -104 6 84 58 91 60 27 -19 21 -66
000060 f2 24 db f0 f3 f6 05 e2 a8 19 9f fb c4 28 da 39
       -14 36 -37 -16 -13 -10 5 -30 -88 25 -97 -5 -60 40 -38 57
000070 ea 5a 22 4c 2c 0c 4e 32 21 01 ca d9 21 c9 dd 81
       -22 90 34 76 44 12 78 50 33 1 -54 -39 33 -55 -35 -127
000080 cf 0d 01 a3 e7 ac 47 fc ec 06 03 e3 0f ff f6 73
       -49 13 1 -93 -25 -84 71 -4 -20 6 3 -29 15 -1 -10 115
000090 f6 ca d2 42 05 05 a8 f9 04 f9 4e 12 e1 20 f7 b0
       -10 -54 -46 66 5 5 -88 -7 4 -7 78 18 -31 32 -9 -80
0000a0 f0 3b 0d f6 bd f0 0c f9 b7 d9 81 e7 b8 23 92 d2
       -16 59 13 -10 -67 -16 12 -7 -73 -39 -127 -25 -72 35 -110 -46
0000b0 eb b5 fc 14 2b 07 b2 21 31 34 46 dd 17 1f 06 b4
       -21 -75 -4 20 43 7 -78 33 49 52 70 -35 23 31 6 -76
0000c0 ce f4 a0 f9 8f ce db dc 9c f4 8f dd 47 1f 9b 14
       -50 -12 -96 -7 -113 -50 -37 -36 -100 -12 -113 -35 71 31 -101 20
0000d0 e6 55 51 fe 13 f6 17 d3 0b cc ea d3 eb 03 b5 b3
       -26 85 81 -2 19 -10 23 -45 11 -52 -22 -45 -21 3 -75 -77
0000e0 e4 b0 57 a3 a9 a6 3b 27 fa b5 96 41 1a ee b8 24
       -28 -80 87 -93 -87 -90 59 39 -6 -75 -106 65 26 -18 -72 36
0000f0 ee e6 0e 4b d8 32 bd 0a 4a 7f 67 a5 d8 24 58 10
       -18 -26 14 75 -40 50 -67 10 74 127 103 -91 -40 36 88 16
