tensorflow/model.tflite (tflite, 154048 bytes, 5 tensors)

sequential_8/dense_16/MatMul i1 [64, 2240] scale=0.0049470044 zero_point=0
0.0 0.07420506 -0.0049470044 -0.07915207 0.12367511 0.014841013 0.07420506 0.009894009
0.024735022 -0.27703226 0.014841013 0.014841013 0.07915207 0.054417048 0.06431106 0.05936405
0.0 -0.08409908 0.019788017 0.0049470044 0.054417048 0.019788017 -0.08409908 -0.23250921
-0.049470045 -0.15830414 -0.024735022 0.06431106 0.019788017 -0.009894009 0.014841013 0.0049470044
-0.024735022 0.034629032 0.014841013 -0.05936405 0.009894009 -0.009894009 0.024735022 0.0
0.12367511 -0.044523038 0.044523038 0.024735022 0.019788017 -0.039576035 0.014841013 -0.024735022
0.0049470044 0.0 0.044523038 -0.024735022 -0.014841013 -0.029682025 0.07420506 -0.049470045
0.108834095 -0.019788017 0.049470045 -0.019788017 -0.108834095 -0.034629032 0.069258064 0.0
-0.019788017 0.07915207 0.069258064 0.049470045 0.0049470044 -0.054417048 0.108834095 0.0049470044
0.15830414 0.0049470044 0.05936405 0.0049470044 -0.14841013 0.029682025 0.0049470044 0.13851613
0.089046076 0.08409908 0.06431106 0.0 -0.1137811 0.069258064 0.1187281 0.14346312
-0.014841013 0.0049470044 0.1187281 0.009894009 0.024735022 -0.10388709 -0.14346312 0.049470045
0.07915207 0.009894009 0.039576035 0.024735022 0.19788018 -0.0049470044 0.0049470044 -0.0049470044
0.044523038 -0.009894009 -0.0049470044 -0.06431106 -0.019788017 -0.029682025 0.019788017 0.039576035
-0.0049470044 -0.044523038 0.108834095 -0.019788017 0.12862211 0.054417048 0.044523038 -0.029682025
-0.0049470044 -0.108834095 -0.039576035 0.019788017 -0.19293317 -0.029682025 0.014841013 -0.069258064
0.014841013 -0.014841013 0.26219124 0.039576035 0.049470045 0.0 -0.054417048 -0.089046076
0.014841013 -0.108834095 0.039576035 -0.14841013 0.034629032 0.1187281 0.20282719 0.0049470044
0.069258064 0.014841013 0.0 -0.10388709 0.024735022 0.069258064 -0.044523038 -0.044523038
-0.029682025 -0.069258064 0.0 0.12862211 0.09399308 -0.029682025 0.12862211 -0.0049470044
0.049470045 -0.069258064 0.06431106 -0.044523038 0.06431106 0.054417048 0.024735022 -0.024735022
-0.034629032 -0.19293317 -0.024735022 0.1137811 0.024735022 0.1187281 0.05936405 0.029682025
0.05936405 -0.18303916 0.039576035 -0.13356912 0.039576035 -0.009894009 -0.07420506 -0.029682025
-0.07420506 0.12862211 0.0 0.18303916 0.014841013 0.21272118 0.06431106 -0.044523038
-0.014841013 0.009894009 0.054417048 -0.06431106 0.029682025 0.039576035 0.054417048 0.039576035
0.024735022 0.1137811 -0.029682025 0.014841013 0.13356912 0.089046076 0.07420506 0.06431106
-0.029682025 0.08409908 -0.054417048 0.08409908 -0.029682025 -0.019788017 -0.07915207 0.07915207
-0.049470045 0.21272118 0.024735022 0.034629032 0.0049470044 0.05936405 -0.16325115 0.21272118
0.039576035 0.18303916 -0.009894009 0.1137811 -0.019788017 0.049470045 0.08409908 0.21272118
0.05936405 0.31166127 0.14841013 0.2226152 0.09399308 -0.108834095 -0.16819815 0.09399308
-0.014841013 0.15335713 0.009894009 0.20282719 -0.014841013 0.05936405 0.19788018 0.07420506
0.18303916 0.07915207 0.0 -0.034629032 -0.044523038 -0.12367511 -0.029682025 0.10388709
00000000: 000f fff0 1903 0f02 05c8 0303 100b 0d0c
00000010: 00ef 0401 0b04 efd1 f6e0 fb0d 04fe 0301
00000020: fb07 03f4 02fe 0500 19f7 0905 04f8 03fb
00000030: 0100 09fb fdfa 0ff6 16fc 0afc eaf9 0e00
00000040: fc10 0e0a 01f5 1601 2001 0c01 e206 011c
00000050: 1211 0d00 e90e 181d fd01 1802 05eb e30a
00000060: 1002 0805 28ff 01ff 09fe fff3 fcfa 0408
00000070: fff7 16fc 1a0b 09fa ffea f804 d9fa 03f2
00000080: 03fd 3508 0a00 f5ee 03ea 08e2 0718 2901
00000090: 0e03 00eb 050e f7f7 faf2 001a 13fa 1aff
000000a0: 0af2 0df7 0d0b 05fb f9d9 fb17 0518 0c06
000000b0: 0cdb 08e5 08fe f1fa f11a 0025 032b 0df7
000000c0: fd02 0bf3 0608 0b08 0517 fa03 1b12 0f0d
000000d0: fa11 f511 fafc f010 f62b 0507 010c df2b
000000e0: 0825 fe17 fc0a 112b 0c3f 1e2d 13ea de13
000000f0: fd1f 0229 fd0c 280f 2510 00f9 f7e7 fa15

sequential_8/dense_17/MatMul i1 [40, 64] scale=0.0045341155 zero_point=0
-0.09521642 -0.19043285 0.19496697 -0.036272924 -0.10881877 -0.16776228 -0.10881877 -0.17229639
-0.022670578 -0.16776228 0.117887005 0.06801173 -0.04987527 0.07707997 -0.21310343 0.15869404
-0.13602346 -0.20856932 0.12242112 0.15869404 -0.0045341155 0.09521642 -0.22217166 -0.04987527
-0.16776228 -0.19496697 -0.13602346 -0.18589874 0.30378574 0.018136462 0.086148195 0.1768305
0.17229639 -0.21763754 -0.18136463 -0.19043285 0.19950108 -0.09521642 -0.06801173 0.13602346
0.10881877 -0.045341156 0.18136463 0.2040352 -0.13148935 -0.2312399 0.022670578 0.12695524
-0.027204692 -0.09975054 0.0045341155 0.03173881 -0.09068231 0.0045341155 0.027204692 -0.19496697
-0.07707997 0.04987527 -0.036272924 -0.19043285 -0.1768305 -0.21310343 -0.19043285 -0.013602346
-0.07707997 -0.22217166 -0.16322815 -0.38993394 -0.2040352 -0.18589874 0.21763754 -0.24030812
0.036272924 -0.04987527 -0.18136463 0.18136463 0.10881877 -0.058943503 0.045341156 -0.24937636
-0.14962581 -0.022670578 -0.06801173 0.26751283 -0.19950108 0.21763754 0.04987527 0.08161408
0.14055759 -0.17229639 -0.09068231 0.1768305 -0.22217166 -0.19043285 0.18136463 0.07707997
-0.39900216 -0.018136462 -0.10428466 0.086148195 -0.27204692 -0.06801173 -0.14055759 -0.09068231
0.17229639 0.15415993 0.2629787 -0.4035363 -0.16322815 0.054409385 -0.08161408 0.13602346
0.27204692 -0.21763754 0.14962581 0.0045341155 0.04080704 -0.0045341155 0.13602346 -0.07254585
-0.19950108 -0.07707997 0.28564927 -0.07707997 0.013602346 0.13602346 0.06347762 -0.19950108
-0.18589874 0.03173881 -0.07707997 -0.48061624 0.13148935 0.06801173 -0.1450917 0.07254585
-0.13148935 0.27658105 0.2312399 0.13148935 0.009068231 -0.086148195 -0.14055759 -0.10428466
-0.09068231 0.1768305 0.03173881 0.013602346 0.06347762 -0.14055759 -0.07707997 -0.1450917
0.11335289 -0.22217166 -0.21763754 -0.14962581 -0.14055759 0.018136462 -0.036272924 -0.03173881
-0.20856932 0.14962581 -0.15869404 0.17229639 -0.20856932 0.03173881 -0.09975054 -0.036272924
-0.009068231 0.2312399 0.086148195 -0.07707997 0.022670578 -0.15415993 0.16322815 0.2629787
0.09521642 -0.3491269 0.086148195 -0.14962581 0.009068231 0.14055759 0.16322815 0.1768305
-0.2312399 0.14962581 0.34459278 0.09521642 0.19043285 -0.09521642 0.058943503 -0.19043285
0.07707997 0.21763754 -0.24484225 -0.09521642 -0.04987527 -0.009068231 0.09521642 0.022670578
-0.24937636 0.2312399 0.24030812 -0.16322815 0.2312399 0.06801173 0.022670578 -0.27658105
-0.12695524 -0.058943503 -0.07254585 -0.22670577 0.022670578 0.15415993 0.009068231 0.14055759
-0.24484225 0.11335289 0.04080704 -0.22217166 -0.10881877 -0.21310343 -0.19043285 0.13602346
-0.06347762 -0.19043285 -0.054409385 -0.16322815 0.13148935 0.036272924 -0.1450917 0.07254585
-0.35819513 0.23577401 -0.15869404 0.1450917 0.013602346 -0.036272924 -0.013602346 -0.058943503
0.06347762 -0.4035363 0.018136462 -0.117887005 -0.027204692 0.018136462 -0.06347762 -0.086148195
-0.25391048 -0.13602346 0.35819513 0.018136462 -0.14055759 0.054409385 0.12242112 -0.24484225
00000000: ebd6 2bf8 e8db e8da fbdb 1a0f f511 d123
00000010: e2d2 1b23 ff15 cff5 dbd5 e2d7 4304 1327
00000020: 26d0 d8d6 2ceb f11e 18f6 282d e3cd 051c
00000030: faea 0107 ec01 06d5 ef0b f8d6 d9d1 d6fd
00000040: efcf dcaa d3d7 30cb 08f5 d828 18f3 0ac9
00000050: dffb f13b d430 0b12 1fda ec27 cfd6 2811
00000060: a8fc e913 c4f1 e1ec 2622 3aa7 dc0c ee1e
00000070: 3cd0 2101 09ff 1ef0 d4ef 3fef 031e 0ed4
00000080: d707 ef96 1d0f e010 e33d 331d 02ed e1e9
00000090: ec27 0703 0ee1 efe0 19cf d0df e104 f8f9
000000a0: d221 dd26 d207 eaf8 fe33 13ef 05de 243a
000000b0: 15b3 13df 021f 2427 cd21 4c15 2aeb 0dd6
000000c0: 1130 caeb f5fe 1505 c933 35dc 330f 05c3
000000d0: e4f3 f0ce 0522 021f ca19 09cf e8d1 d61e
000000e0: f2d6 f4dc 1d08 e010 b134 dd20 03f8 fdf3
000000f0: 0ea7 04e6 fa04 f2ed c8e2 4f04 e10c 1bca

sequential_8/conv2d_23/Conv2D i1 [4, 3, 3, 3]
64 36 -49 2 -78 -37 127 -24
-78 46 38 -85 4 50 -77 52
-84 40 55 -90 -92 102 -4 73
84 -96 62 -51 -55 -87 -3 -21
-21 -36 97 52 -61 33 82 -42
127 24 104 13 113 79 109 113
58 105 60 37 114 121 -62 85
42 -79 87 -4 -115 19 42 -20
6 -51 -47 16 -56 -71 66 66
-69 74 127 14 124 60 -50 124
-44 126 36 11 67 65 43 38
75 58 112 36 59 91 88 21
4 41 -15 107 39 49 127 65
32 11 30 62
00000000: 4024 cf02 b2db 7fe8 b22e 26ab 0432 b334
00000010: ac28 37a6 a466 fc49 54a0 3ecd c9a9 fdeb
00000020: ebdc 6134 c321 52d6 7f18 680d 714f 6d71
00000030: 3a69 3c25 7279 c255 2ab1 57fc 8d13 2aec
00000040: 06cd d110 c8b9 4242 bb4a 7f0e 7c3c ce7c
00000050: d47e 240b 4341 2b26 4b3a 7024 3b5b 5815
00000060: 0429 f16b 2731 7f41 200b 1e3e

sequential_8/conv2d_24/Conv2D i1 [8, 3, 3, 4]
123 21 -10 104 84 83 22 110
-63 127 -13 56 -64 -74 -52 -7
50 -19 -57 92 -42 52 -60 -28
44 -11 -123 -95 7 54 41 -53
-68 8 48 26 127 -24 -28 13
71 -28 -41 37 29 37 1 -34
105 -16 -32 -18 84 -46 -58 50
83 -24 -52 -17 43 -43 -79 16
9 18 -24 44 38 -56 11 18
-33 -77 60 56 -107 -102 50 1
59 33 96 -25 -66 3 6 -21
53 37 -16 -92 -109 -80 53 27
45 127 96 123 -99 118 -44 -6
-64 -66 28 13 -20 -69 -20 -36
25 -80 -19 -77 0 36 0 -45
32 107 106 95 62 15 57 -64
36 -5 73 40 127 16 28 30
109 -16 -35 -12 15 54 -23 -3
-40 21 -68 32 41 -12 43 123
4 114 31 97 -36 69 -122 -6
62 66 30 -41 -63 -29 -102 78
47 -88 -127 -6 85 73 -48 -28
-24 -69 -63 74 78 -24 -59 28
103 8 -86 -43 57 13 12 35
33 -57 -67 -55 127 23 -33 43
56 47 -7 7 88 20 -41 -37
98 42 -80 -14 102 -9 -43 78
87 27 -20 -24 104 -35 -29 26
114 -29 -46 15 114 -27 -22 17
127 20 -75 -11 72 -47 17 61
47 -42 -1 -24 106 38 -65 70
93 -40 -64 -49 39 31 -12 103
00000000: 7b15 f668 5453 166e c17f f338 c0b6 ccf9
00000010: 32ed c75c d634 c4e4 2cf5 85a1 0736 29cb
00000020: bc08 301a 7fe8 e40d 47e4 d725 1d25 01de
00000030: 69f0 e0ee 54d2 c632 53e8 ccef 2bd5 b110
00000040: 0912 e82c 26c8 0b12 dfb3 3c38 959a 3201
00000050: 3b21 60e7 be03 06eb 3525 f0a4 93b0 351b
00000060: 2d7f 607b 9d76 d4fa c0be 1c0d ecbb ecdc
00000070: 19b0 edb3 0024 00d3 206b 6a5f 3e0f 39c0
00000080: 24fb 4928 7f10 1c1e 6df0 ddf4 0f36 e9fd
00000090: d815 bc20 29f4 2b7b 0472 1f61 dc45 86fa
000000a0: 3e42 1ed7 c1e3 9a4e 2fa8 81fa 5549 d0e4
000000b0: e8bb c14a 4ee8 c51c 6708 aad5 390d 0c23
000000c0: 21c7 bdc9 7f17 df2b 382f f907 5814 d7db
000000d0: 622a b0f2 66f7 d54e 571b ece8 68dd e31a
000000e0: 72e3 d20f 72e5 ea11 7f14 b5f5 48d1 113d
000000f0: 2fd6 ffe8 6a26 bf46 5dd8 c0cf 271f f467

sequential_8/conv2d_25/Conv2D i1 [16, 3, 3, 8]
-41 40 -14 -15 -11 18 26 -31
-20 106 -68 -103 -5 52 95 -39
-71 15 17 43 -53 -63 84 -1
22 -15 -79 -20 21 -13 4 -9
68 108 -76 -73 50 94 100 89
79 61 -34 72 6 -88 67 63
0 -49 72 45 -5 -83 -35 -5
-29 -5 26 -122 -32 -70 -25 18
5 72 -6 -127 -49 -96 -3 -32
30 69 -41 -23 10 16 36 -13
5 81 8 10 7 51 37 -22
-45 36 -21 31 4 33 6 -26
20 29 5 -15 23 54 39 -42
23 127 12 -38 -16 70 86 -16
-11 61 20 3 -22 44 39 -20
-38 -9 3 23 4 32 0 -6
25 45 -38 -62 -14 29 11 -3
-11 28 19 -42 19 3 30 -7
-96 -86 -25 94 -12 -12 -16 -43
0 -28 86 13 -61 -64 -47 -14
-60 84 -24 -55 79 91 -7 -30
9 -84 80 -84 -7 50 -60 24
38 -51 25 16 -38 -87 -126 6
64 -9 -61 -31 68 58 -66 17
115 111 -108 -65 57 -11 -10 69
67 60 -88 -127 73 -92 -91 -11
40 -45 4 -26 -44 37 -26 -68
-35 73 -32 15 -14 -3 63 34
-52 37 12 -3 -11 100 53 -79
29 103 1 4 29 127 113 -29
-53 -6 42 -65 -54 33 1 -35
6 43 -25 -50 -38 48 -2 -5
00000000: d728 f2f1 f512 1ae1 ec6a bc99 fb34 5fd9
00000010: b90f 112b cbc1 54ff 16f1 b1ec 15f3 04f7
00000020: 446c b4b7 325e 6459 4f3d de48 06a8 433f
00000030: 00cf 482d fbad ddfb e3fb 1a86 e0ba e712
00000040: 0548 fa81 cfa0 fde0 1e45 d7e9 0a10 24f3
00000050: 0551 080a 0733 25ea d324 eb1f 0421 06e6
00000060: 141d 05f1 1736 27d6 177f 0cda f046 56f0
00000070: f53d 1403 ea2c 27ec daf7 0317 0420 00fa
00000080: 192d dac2 f21d 0bfd f51c 13d6 1303 1ef9
00000090: a0aa e75e f4f4 f0d5 00e4 560d c3c0 d1f2
000000a0: c454 e8c9 4f5b f9e2 09ac 50ac f932 c418
000000b0: 26cd 1910 daa9 8206 40f7 c3e1 443a be11
000000c0: 736f 94bf 39f5 f645 433c a881 49a4 a5f5
000000d0: 28d3 04e6 d425 e6bc dd49 e00f f2fd 3f22
000000e0: cc25 0cfd f564 35b1 1d67 0104 1d7f 71e3
000000f0: cbfa 2abf ca21 01dd 062b e7ce da30 fefb
