tensorflow/model.tflite (tflite, 154032 bytes, 5 tensors)

sequential_9/dense_18/MatMul i1 [64, 2240] scale=0.0064949146 zero_point=0
0	0x03	0.019484743
1	0xff	-0.0064949146
2	0x01	0.0064949146
3	0x03	0.019484743
4	0xfa	-0.038969487
5	0xfe	-0.012989829
6	0x03	0.019484743
7	0xfa	-0.038969487
8	0xff	-0.0064949146
9	0xfd	-0.019484743
10	0xf7	-0.05845423
11	0xfd	-0.019484743
12	0x00	0.0
13	0x04	0.025979659
14	0x04	0.025979659
15	0x00	0.0
16	0x03	0.019484743
17	0x02	0.012989829
18	0xf8	-0.051959317
19	0xfe	-0.012989829
20	0xff	-0.0064949146
21	0xfc	-0.025979659
22	0x06	0.038969487
23	0xfa	-0.038969487
24	0x06	0.038969487
25	0xfb	-0.032474574
26	0x00	0.0
27	0xf8	-0.051959317
28	0x04	0.025979659
29	0x03	0.019484743
30	0x05	0.032474574
31	0xfe	-0.012989829
32	0xfa	-0.038969487
33	0xfb	-0.032474574
34	0xff	-0.0064949146
35	0x02	0.012989829
36	0x03	0.019484743
37	0xfe	-0.012989829
38	0x04	0.025979659
39	0xf9	-0.045464404
40	0x06	0.038969487
41	0x03	0.019484743
42	0x00	0.0
43	0x00	0.0
44	0x01	0.0064949146
45	0xfd	-0.019484743
46	0xfd	-0.019484743
47	0xff	-0.0064949146
48	0xfe	-0.012989829
49	0xfc	-0.025979659
50	0x03	0.019484743
51	0xf8	-0.051959317
52	0xfa	-0.038969487
53	0xfa	-0.038969487
54	0xfe	-0.012989829
55	0x00	0.0
56	0xfa	-0.038969487
57	0x05	0.032474574
58	0xff	-0.0064949146
59	0x02	0.012989829
60	0x04	0.025979659
61	0x03	0.019484743
62	0x06	0.038969487
63	0x07	0.045464404
64	0x04	0.025979659
65	0xfd	-0.019484743
66	0xff	-0.0064949146
67	0xf9	-0.045464404
68	0x02	0.012989829
69	0xfe	-0.012989829
70	0x00	0.0
71	0x00	0.0
72	0x04	0.025979659
73	0x04	0.025979659
74	0xf9	-0.045464404
75	0xfa	-0.038969487
76	0xf9	-0.045464404
77	0xf8	-0.051959317
78	0x04	0.025979659
79	0xff	-0.0064949146
80	0x03	0.019484743
81	0xfb	-0.032474574
82	0x05	0.032474574
83	0x06	0.038969487
84	0xf9	-0.045464404
85	0xf8	-0.051959317
86	0xfd	-0.019484743
87	0x06	0.038969487
88	0xfa	-0.038969487
89	0xfe	-0.012989829
90	0x07	0.045464404
91	0xf9	-0.045464404
92	0xf9	-0.045464404
93	0xfe	-0.012989829
94	0x03	0.019484743
95	0x02	0.012989829
96	0x07	0.045464404
97	0x02	0.012989829
98	0x01	0.0064949146
99	0x03	0.019484743
100	0x00	0.0
101	0x05	0.032474574
102	0xfb	-0.032474574
103	0xff	-0.0064949146
104	0xfe	-0.012989829
105	0x06	0.038969487
106	0xff	-0.0064949146
107	0xff	-0.0064949146
108	0xfb	-0.032474574
109	0xfd	-0.019484743
110	0xfb	-0.032474574
111	0x00	0.0
112	0x00	0.0
113	0xf8	-0.051959317
114	0x00	0.0
115	0x06	0.038969487
116	0xfa	-0.038969487
117	0xfd	-0.019484743
118	0x05	0.032474574
119	0xf8	-0.051959317
120	0xfa	-0.038969487
121	0xfe	-0.012989829
122	0x03	0.019484743
123	0x03	0.019484743
124	0x07	0.045464404
125	0xff	-0.0064949146
126	0xfe	-0.012989829
127	0xff	-0.0064949146
128	0x02	0.012989829
129	0xfb	-0.032474574
130	0xfa	-0.038969487
131	0x06	0.038969487
132	0x02	0.012989829
133	0x00	0.0
134	0x00	0.0
135	0x04	0.025979659
136	0xff	-0.0064949146
137	0xf9	-0.045464404
138	0x06	0.038969487
139	0x01	0.0064949146
140	0xfb	-0.032474574
141	0x02	0.012989829
142	0xfd	-0.019484743
143	0xfe	-0.012989829
144	0x07	0.045464404
145	0x04	0.025979659
146	0x00	0.0
147	0x04	0.025979659
148	0xf8	-0.051959317
149	0x03	0.019484743
150	0x01	0.0064949146
151	0xff	-0.0064949146
152	0xff	-0.0064949146
153	0x03	0.019484743
154	0x01	0.0064949146
155	0xfb	-0.032474574
156	0xff	-0.0064949146
157	0xf8	-0.051959317
158	0xfb	-0.032474574
159	0xf9	-0.045464404
160	0xf8	-0.051959317
161	0x05	0.032474574
162	0xf8	-0.051959317
163	0xfd	-0.019484743
164	0xff	-0.0064949146
165	0x05	0.032474574
166	0xff	-0.0064949146
167	0xfc	-0.025979659
168	0xfd	-0.019484743
169	0x00	0.0
170	0xfc	-0.025979659
171	0x05	0.032474574
172	0x06	0.038969487
173	0x06	0.038969487
174	0xf9	-0.045464404
175	0x02	0.012989829
176	0xfb	-0.032474574
177	0x01	0.0064949146
178	0xfb	-0.032474574
179	0x04	0.025979659
180	0x06	0.038969487
181	0x01	0.0064949146
182	0x04	0.025979659
183	0xf8	-0.051959317
184	0x05	0.032474574
185	0xfb	-0.032474574
186	0xfc	-0.025979659
187	0x06	0.038969487
188	0xff	-0.0064949146
189	0xfc	-0.025979659
190	0xfe	-0.012989829
191	0xfa	-0.038969487
192	0x00	0.0
193	0xff	-0.0064949146
194	0xff	-0.0064949146
195	0xf8	-0.051959317
196	0x05	0.032474574
197	0x08	0.051959317
198	0xff	-0.0064949146
199	0xfb	-0.032474574
200	0x00	0.0
201	0xfd	-0.019484743
202	0xfd	-0.019484743
203	0x06	0.038969487
204	0x05	0.032474574
205	0x06	0.038969487
206	0xff	-0.0064949146
207	0xfd	-0.019484743
208	0xfa	-0.038969487
209	0xfb	-0.032474574
210	0x03	0.019484743
211	0xfd	-0.019484743
212	0xfc	-0.025979659
213	0x05	0.032474574
214	0x06	0.038969487
215	0x02	0.012989829
216	0xfa	-0.038969487
217	0x00	0.0
218	0xfd	-0.019484743
219	0xfd	-0.019484743
220	0xfe	-0.012989829
221	0xff	-0.0064949146
222	0x06	0.038969487
223	0x04	0.025979659
224	0x03	0.019484743
225	0x04	0.025979659
226	0xf9	-0.045464404
227	0xfb	-0.032474574
228	0x00	0.0
229	0xfa	-0.038969487
230	0xff	-0.0064949146
231	0xff	-0.0064949146
232	0x07	0.045464404
233	0x01	0.0064949146
234	0xfc	-0.025979659
235	0x00	0.0
236	0x03	0.019484743
237	0x02	0.012989829
238	0x01	0.0064949146
239	0x08	0.051959317
240	0xfe	-0.012989829
241	0xfd	-0.019484743
242	0x01	0.0064949146
243	0x00	0.0
244	0xfb	-0.032474574
245	0xfd	-0.019484743
246	0x05	0.032474574
247	0x08	0.051959317
248	0xfa	-0.038969487
249	0x02	0.012989829
250	0xfe	-0.012989829
251	0x00	0.0
252	0x06	0.038969487
253	0xfa	-0.038969487
254	0xf9	-0.045464404
255	0xfe	-0.012989829

sequential_9/dense_19/MatMul i1 [40, 64] scale=0.0053322297 zero_point=0
0	0x0d	0.06931899
1	0xfe	-0.010664459
2	0xfc	-0.021328919
3	0xd8	-0.21328919
4	0x3b	0.31460154
5	0xe1	-0.16529912
6	0xe2	-0.15996689
7	0xf6	-0.053322297
8	0xf8	-0.042657837
9	0xd7	-0.21862142
10	0x17	0.12264128
11	0xff	-0.0053322297
12	0xfb	-0.026661148
13	0x0a	0.053322297
14	0x1c	0.14930242
15	0x1b	0.1439702
16	0xee	-0.09598014
17	0x03	0.015996689
18	0xe9	-0.12264128
19	0xea	-0.11730905
20	0x00	0.0
21	0x19	0.13330574
22	0xf5	-0.058654524
23	0xdb	-0.19729249
24	0xe3	-0.15463465
25	0x25	0.19729249
26	0x25	0.19729249
27	0x2a	0.22395365
28	0xd8	-0.21328919
29	0xfb	-0.026661148
30	0x16	0.11730905
31	0x07	0.037325606
32	0xe2	-0.15996689
33	0xed	-0.10131236
34	0xe8	-0.12797351
35	0xde	-0.18129581
36	0xdd	-0.18662804
37	0xfc	-0.021328919
38	0xe3	-0.15463465
39	0xf5	-0.058654524
40	0x0f	0.07998344
41	0xf0	-0.085315675
42	0xdf	-0.17596358
43	0xff	-0.0053322297
44	0x25	0.19729249
45	0xfd	-0.015996689
46	0x13	0.10131236
47	0xd7	-0.21862142
48	0x03	0.015996689
49	0x2d	0.23995033
50	0xf6	-0.053322297
51	0xf6	-0.053322297
52	0xe4	-0.14930242
53	0xf8	-0.042657837
54	0x06	0.031993378
55	0xfb	-0.026661148
56	0xfa	-0.031993378
57	0x10	0.085315675
58	0xfd	-0.015996689
59	0xe0	-0.17063135
60	0xdc	-0.19196028
61	0xe4	-0.14930242
62	0x0a	0.053322297
63	0xdd	-0.18662804
64	0xe4	-0.14930242
65	0xf1	-0.07998344
66	0xf7	-0.04799007
67	0xd6	-0.22395365
68	0x00	0.0
69	0x23	0.18662804
70	0x02	0.010664459
71	0x08	0.042657837
72	0xe5	-0.1439702
73	0x06	0.031993378
74	0xce	-0.2666115
75	0xb4	-0.40524945
76	0x2b	0.22928588
77	0x36	0.2879404
78	0x11	0.090647906
79	0xf4	-0.063986756
80	0xdc	-0.19196028
81	0xd6	-0.22395365
82	0x2b	0.22928588
83	0x27	0.20795695
84	0x2b	0.22928588
85	0xe5	-0.1439702
86	0xaf	-0.4319106
87	0xfc	-0.021328919
88	0x19	0.13330574
89	0xd4	-0.2346181
90	0xf1	-0.07998344
91	0xec	-0.10664459
92	0xff	-0.0053322297
93	0x2b	0.22928588
94	0x1c	0.14930242
95	0x24	0.19196028
96	0xde	-0.18129581
97	0xee	-0.09598014
98	0xd5	-0.22928588
99	0x06	0.031993378
100	0xd3	-0.23995033
101	0x09	0.04799007
102	0xe6	-0.13863797
103	0x03	0.015996689
104	0xfd	-0.015996689
105	0xd4	-0.2346181
106	0x04	0.021328919
107	0x18	0.12797351
108	0x13	0.10131236
109	0x17	0.12264128
110	0x2f	0.2506148
111	0x20	0.17063135
112	0xde	-0.18129581
113	0x21	0.17596358
114	0x07	0.037325606
115	0x1e	0.15996689
116	0xdf	-0.17596358
117	0xdf	-0.17596358
118	0x32	0.2666115
119	0x08	0.042657837
120	0x13	0.10131236
121	0xe2	-0.15996689
122	0xfd	-0.015996689
123	0x25	0.19729249
124	0x0e	0.07465121
125	0xf7	-0.04799007
126	0xef	-0.090647906
127	0xf9	-0.037325606
128	0x17	0.12264128
129	0xea	-0.11730905
130	0xce	-0.2666115
131	0xe1	-0.16529912
132	0xe1	-0.16529912
133	0x14	0.10664459
134	0x27	0.20795695
135	0xbc	-0.36259162
136	0x21	0.17596358
137	0x29	0.21862142
138	0x25	0.19729249
139	0xcc	-0.27727595
140	0xef	-0.090647906
141	0x07	0.037325606
142	0xf1	-0.07998344
143	0x05	0.026661148
144	0x09	0.04799007
145	0xe3	-0.15463465
146	0xe2	-0.15996689
147	0xe5	-0.1439702
148	0x26	0.20262472
149	0xc0	-0.3412627
150	0xd6	-0.22395365
151	0x24	0.19196028
152	0x06	0.031993378
153	0x90	-0.5972097
154	0x15	0.111976825
155	0xf7	-0.04799007
156	0xf4	-0.063986756
157	0x09	0.04799007
158	0x2e	0.24528256
159	0x26	0.20262472
160	0xeb	-0.111976825
161	0xe1	-0.16529912
162	0x03	0.015996689
163	0x13	0.10131236
164	0xf0	-0.085315675
165	0xf6	-0.053322297
166	0xf6	-0.053322297
167	0x2b	0.22928588
168	0x10	0.085315675
169	0xd3	-0.23995033
170	0x18	0.12797351
171	0xe5	-0.1439702
172	0x34	0.27727595
173	0x2a	0.22395365
174	0x2a	0.22395365
175	0x0e	0.07465121
176	0x09	0.04799007
177	0xf5	-0.058654524
178	0x1d	0.15463465
179	0x2d	0.23995033
180	0xdf	-0.17596358
181	0x11	0.090647906
182	0x0c	0.063986756
183	0x00	0.0
184	0xfa	-0.031993378
185	0x1a	0.13863797
186	0x0a	0.053322297
187	0xdc	-0.19196028
188	0x12	0.09598014
189	0xe7	-0.13330574
190	0xe3	-0.15463465
191	0xfa	-0.031993378
192	0x26	0.20262472
193	0x07	0.037325606
194	0xc3	-0.325266
195	0xd9	-0.20795695
196	0x09	0.04799007
197	0xea	-0.11730905
198	0x03	0.015996689
199	0xe1	-0.16529912
200	0x19	0.13330574
201	0x08	0.042657837
202	0x1b	0.1439702
203	0xe6	-0.13863797
204	0x24	0.19196028
205	0x1f	0.16529912
206	0xfe	-0.010664459
207	0xf2	-0.07465121
208	0x24	0.19196028
209	0xdc	-0.19196028
210	0x1b	0.1439702
211	0xda	-0.20262472
212	0x18	0.12797351
213	0x0a	0.053322297
214	0x05	0.026661148
215	0x16	0.11730905
216	0xe0	-0.17063135
217	0xb9	-0.37858832
218	0x0b	0.058654524
219	0x19	0.13330574
220	0xe7	-0.13330574
221	0x28	0.21328919
222	0xeb	-0.111976825
223	0xf1	-0.07998344
224	0x26	0.20262472
225	0x1f	0.16529912
226	0x03	0.015996689
227	0xe1	-0.16529912
228	0xeb	-0.111976825
229	0x21	0.17596358
230	0xd8	-0.21328919
231	0xf4	-0.063986756
232	0x02	0.010664459
233	0x2b	0.22928588
234	0x13	0.10131236
235	0xeb	-0.111976825
236	0x26	0.20262472
237	0xde	-0.18129581
238	0xfb	-0.026661148
239	0xe0	-0.17063135
240	0xdd	-0.18662804
241	0xe0	-0.17063135
242	0xda	-0.20262472
243	0xf4	-0.063986756
244	0xde	-0.18129581
245	0x15	0.111976825
246	0x2e	0.24528256
247	0xd3	-0.23995033
248	0xef	-0.090647906
249	0x17	0.12264128
250	0x21	0.17596358
251	0x21	0.17596358
252	0xd4	-0.2346181
253	0x03	0.015996689
254	0xf6	-0.053322297
255	0xee	-0.09598014

sequential_9/conv2d_26/Conv2D i1 [4, 3, 3, 3]
0	0x90	-112
1	0xbe	-66
2	0xd9	-39
3	0xa7	-89
4	0xec	-20
5	0xf5	-11
6	0xf7	-9
7	0xba	-70
8	0xcb	-53
9	0xd3	-45
10	0x42	66
11	0xef	-17
12	0x06	6
13	0x6e	110
14	0x08	8
15	0x24	36
16	0x0f	15
17	0xdc	-36
18	0x33	51
19	0x1a	26
20	0xd7	-41
21	0x15	21
22	0x7f	127
23	0x0f	15
24	0x0d	13
25	0x76	118
26	0x49	73
27	0x3f	63
28	0x70	112
29	0x32	50
30	0x19	25
31	0xff	-1
32	0x61	97
33	0x6c	108
34	0xda	-38
35	0x6c	108
36	0x7b	123
37	0xea	-22
38	0x7f	127
39	0xed	-19
40	0x2e	46
41	0x67	103
42	0x32	50
43	0x27	39
44	0x39	57
45	0xf5	-11
46	0xd2	-46
47	0xe3	-29
48	0x19	25
49	0x2e	46
50	0x3f	63
51	0x65	101
52	0x6d	109
53	0x24	36
54	0x2d	45
55	0x79	121
56	0x3c	60
57	0xe2	-30
58	0x5a	90
59	0xc4	-60
60	0x2d	45
61	0x47	71
62	0xa9	-87
63	0x2b	43
64	0xb5	-75
65	0xdf	-33
66	0xfa	-6
67	0x58	88
68	0xbb	-69
69	0xb9	-71
70	0x08	8
71	0x81	-127
72	0xeb	-21
73	0xd5	-43
74	0xce	-50
75	0xd5	-43
76	0xe1	-31
77	0xce	-50
78	0x40	64
79	0x23	35
80	0x35	53
81	0x09	9
82	0x95	-107
83	0xed	-19
84	0xf8	-8
85	0x7b	123
86	0xc5	-59
87	0xa3	-93
88	0xe7	-25
89	0x8e	-114
90	0xab	-85
91	0x7f	127
92	0x3c	60
93	0x2f	47
94	0xe6	-26
95	0xb7	-73
96	0x99	-103
97	0xf7	-9
98	0x64	100
99	0xc0	-64
100	0x15	21
101	0xd8	-40
102	0x10	16
103	0x37	55
104	0xa1	-95
105	0x5b	91
106	0xc6	-58
107	0xd9	-39

sequential_9/conv2d_27/Conv2D i1 [8, 3, 3, 4]
0	0x67	103
1	0x00	0
2	0xf8	-8
3	0xd7	-41
4	0x7f	127
5	0xf6	-10
6	0xcb	-53
7	0xff	-1
8	0x65	101
9	0x27	39
10	0xc6	-58
11	0x1e	30
12	0x06	6
13	0x2c	44
14	0xea	-22
15	0xf8	-8
16	0x18	24
17	0x2e	46
18	0x05	5
19	0x1d	29
20	0xe2	-30
21	0x03	3
22	0xf6	-10
23	0x11	17
24	0xbf	-65
25	0x22	34
26	0xf0	-16
27	0x26	38
28	0xb0	-80
29	0x1e	30
30	0xee	-18
31	0xff	-1
32	0xd1	-47
33	0x2d	45
34	0xd6	-42
35	0x1f	31
36	0x7d	125
37	0x63	99
38	0x10	16
39	0xc8	-56
40	0x7e	126
41	0x30	48
42	0x4d	77
43	0xc0	-64
44	0x58	88
45	0x45	69
46	0x01	1
47	0xca	-54
48	0xb0	-80
49	0x24	36
50	0x48	72
51	0xd9	-39
52	0x8b	-117
53	0x1c	28
54	0x29	41
55	0xe1	-31
56	0x9a	-102
57	0x0f	15
58	0x3e	62
59	0xf3	-13
60	0x9f	-97
61	0x2c	44
62	0xde	-34
63	0x06	6
64	0xb9	-71
65	0x32	50
66	0xf9	-7
67	0xad	-83
68	0x81	-127
69	0x19	25
70	0xdd	-35
71	0xc8	-56
72	0xb6	-74
73	0xdd	-35
74	0x5e	94
75	0xf4	-12
76	0x8c	-116
77	0xe1	-31
78	0x11	17
79	0x34	52
80	0x85	-123
81	0xd0	-48
82	0x15	21
83	0x6d	109
84	0x2a	42
85	0xd7	-41
86	0x39	57
87	0x07	7
88	0xd8	-40
89	0x00	0
90	0x20	32
91	0x7f	127
92	0xb1	-79
93	0xb4	-76
94	0x0e	14
95	0x66	102
96	0x31	49
97	0xd9	-39
98	0x4b	75
99	0x21	33
100	0x01	1
101	0xc9	-55
102	0x49	73
103	0x7a	122
104	0x0d	13
105	0x32	50
106	0x6b	107
107	0x0f	15
108	0x12	18
109	0x72	114
110	0x81	-127
111	0x89	-119
112	0x31	49
113	0x32	50
114	0xb3	-77
115	0xdf	-33
116	0x25	37
117	0xc9	-55
118	0x31	49
119	0x40	64
120	0xa1	-95
121	0x3f	63
122	0x99	-103
123	0xbb	-69
124	0xa5	-91
125	0x35	53
126	0x94	-108
127	0x0f	15
128	0x11	17
129	0xbf	-65
130	0xb7	-73
131	0x04	4
132	0xbb	-69
133	0x69	105
134	0x86	-122
135	0x3c	60
136	0xaa	-86
137	0x1d	29
138	0xbe	-66
139	0x64	100
140	0x90	-112
141	0x32	50
142	0x33	51
143	0xed	-19
144	0x11	17
145	0x23	35
146	0x47	71
147	0xe6	-26
148	0xfc	-4
149	0xe4	-28
150	0x2d	45
151	0xeb	-21
152	0x1c	28
153	0xee	-18
154	0x12	18
155	0x0b	11
156	0x20	32
157	0xf2	-14
158	0x27	39
159	0xfb	-5
160	0x2e	46
161	0xc0	-64
162	0x02	2
163	0xd8	-40
164	0x2e	46
165	0xe8	-24
166	0x3e	62
167	0xf0	-16
168	0x61	97
169	0x21	33
170	0x19	25
171	0x00	0
172	0x41	65
173	0xf4	-12
174	0x08	8
175	0x0e	14
176	0x7f	127
177	0xe3	-29
178	0xfc	-4
179	0xf0	-16
180	0x08	8
181	0x0d	13
182	0x09	9
183	0x13	19
184	0x22	34
185	0x43	67
186	0x00	0
187	0x04	4
188	0xd4	-44
189	0xbb	-69
190	0x72	114
191	0x0c	12
192	0x2f	47
193	0xd3	-45
194	0x2f	47
195	0x28	40
196	0x1f	31
197	0xe9	-23
198	0x2b	43
199	0x46	70
200	0xde	-34
201	0xc3	-61
202	0x23	35
203	0x3d	61
204	0x2f	47
205	0xe5	-27
206	0x02	2
207	0x3c	60
208	0xef	-17
209	0xee	-18
210	0x53	83
211	0xe3	-29
212	0xcf	-49
213	0xb1	-79
214	0x7f	127
215	0x38	56
216	0x5d	93
217	0x1d	29
218	0x20	32
219	0xb9	-71
220	0x63	99
221	0xcd	-51
222	0x0f	15
223	0xf9	-7
224	0x0e	14
225	0xc2	-62
226	0x4a	74
227	0x13	19
228	0x73	115
229	0x1f	31
230	0x4c	76
231	0xe1	-31
232	0x5f	95
233	0x00	0
234	0x4c	76
235	0xf8	-8
236	0x7f	127
237	0x06	6
238	0x31	49
239	0xd5	-43
240	0x44	68
241	0xe7	-25
242	0x03	3
243	0xe7	-25
244	0x55	85
245	0x0e	14
246	0x33	51
247	0x20	32
248	0x18	24
249	0xfc	-4
250	0x3b	59
251	0xf0	-16
252	0x07	7
253	0x19	25
254	0x42	66
255	0xeb	-21

sequential_9/conv2d_28/Conv2D i1 [16, 3, 3, 8]
0	0x14	20
1	0x46	70
2	0xc3	-61
3	0x57	87
4	0x28	40
5	0x17	23
6	0x58	88
7	0x52	82
8	0xb1	-79
9	0xc7	-57
10	0xf3	-13
11	0x19	25
12	0x36	54
13	0x0a	10
14	0x28	40
15	0x3f	63
16	0xeb	-21
17	0xcd	-51
18	0xf5	-11
19	0xab	-85
20	0x43	67
21	0x2e	46
22	0x3f	63
23	0x16	22
24	0x39	57
25	0x0e	14
26	0xfd	-3
27	0x29	41
28	0x3c	60
29	0xf1	-15
30	0x72	114
31	0x40	64
32	0xdf	-33
33	0x24	36
34	0xdf	-33
35	0xd1	-47
36	0x41	65
37	0xe0	-32
38	0x75	117
39	0x72	114
40	0xdd	-35
41	0xcd	-51
42	0xf9	-7
43	0xda	-38
44	0x30	48
45	0xf2	-14
46	0x7f	127
47	0xfe	-2
48	0xbd	-67
49	0x23	35
50	0xbb	-69
51	0xc0	-64
52	0x1c	28
53	0x2f	47
54	0x45	69
55	0xdb	-37
56	0xab	-85
57	0x02	2
58	0xc4	-60
59	0xd5	-43
60	0x7b	123
61	0xfa	-6
62	0x30	48
63	0x4e	78
64	0x21	33
65	0x24	36
66	0x05	5
67	0xa7	-89
68	0xde	-34
69	0x48	72
70	0x42	66
71	0xf1	-15
72	0x3e	62
73	0x06	6
74	0x93	-109
75	0xe2	-30
76	0x47	71
77	0xc6	-58
78	0x2f	47
79	0xce	-50
80	0x4e	78
81	0xc1	-63
82	0x81	-127
83	0x09	9
84	0x27	39
85	0xf0	-16
86	0x6b	107
87	0xf1	-15
88	0xfe	-2
89	0x1e	30
90	0xa1	-95
91	0x00	0
92	0x51	81
93	0x22	34
94	0xe5	-27
95	0xe0	-32
96	0x29	41
97	0xda	-38
98	0xb1	-79
99	0xfe	-2
100	0x32	50
101	0x9a	-102
102	0x0e	14
103	0xe3	-29
104	0xfe	-2
105	0xb6	-74
106	0x09	9
107	0x1e	30
108	0xe5	-27
109	0xcb	-53
110	0x21	33
111	0x07	7
112	0x19	25
113	0x03	3
114	0x4d	77
115	0xea	-22
116	0x1e	30
117	0xf7	-9
118	0xdc	-36
119	0x3d	61
120	0xea	-22
121	0x23	35
122	0xe9	-23
123	0xf0	-16
124	0x40	64
125	0x13	19
126	0xf0	-16
127	0x17	23
128	0xf0	-16
129	0x04	4
130	0xb0	-80
131	0x0c	12
132	0x31	49
133	0x0b	11
134	0xd1	-47
135	0x30	48
136	0xe9	-23
137	0xe4	-28
138	0xc2	-62
139	0x15	21
140	0xe7	-25
141	0x29	41
142	0x1f	31
143	0x2d	45
144	0x16	22
145	0x1b	27
146	0xf4	-12
147	0x02	2
148	0x05	5
149	0x33	51
150	0x0e	14
151	0x06	6
152	0x08	8
153	0xd3	-45
154	0x00	0
155	0xfa	-6
156	0xfe	-2
157	0xfe	-2
158	0x4c	76
159	0x02	2
160	0xd5	-43
161	0xcc	-52
162	0x22	34
163	0x15	21
164	0x4c	76
165	0x4a	74
166	0x16	22
167	0xfc	-4
168	0x37	55
169	0x18	24
170	0xfa	-6
171	0x3a	58
172	0xf7	-9
173	0x15	21
174	0xd4	-44
175	0xe4	-28
176	0x3b	59
177	0xf2	-14
178	0xee	-18
179	0x05	5
180	0x20	32
181	0xf7	-9
182	0xee	-18
183	0x02	2
184	0x29	41
185	0x17	23
186	0xf3	-13
187	0x45	69
188	0x21	33
189	0xdc	-36
190	0xe2	-30
191	0x0e	14
192	0xea	-22
193	0x09	9
194	0xef	-17
195	0x0a	10
196	0xf4	-12
197	0x18	24
198	0x81	-127
199	0xf1	-15
200	0xca	-54
201	0xfa	-6
202	0xca	-54
203	0x12	18
204	0xfe	-2
205	0xd5	-43
206	0xcd	-51
207	0xf3	-13
208	0xd6	-42
209	0x1a	26
210	0x23	35
211	0x0a	10
212	0xec	-20
213	0xde	-34
214	0xad	-83
215	0x46	70
216	0x1a	26
217	0xdf	-33
218	0x22	34
219	0xc2	-62
220	0x5f	95
221	0xed	-19
222	0xcb	-53
223	0x5b	91
224	0x48	72
225	0x2d	45
226	0xb1	-79
227	0x19	25
228	0xab	-85
229	0x0f	15
230	0x40	64
231	0xc9	-55
232	0x13	19
233	0x38	56
234	0xd6	-42
235	0x54	84
236	0xfa	-6
237	0x0f	15
238	0x57	87
239	0x39	57
240	0x1d	29
241	0xd5	-43
242	0x19	25
243	0x12	18
244	0x50	80
245	0x2b	43
246	0x1f	31
247	0xd0	-48
248	0x06	6
249	0x13	19
250	0xf3	-13
251	0x24	36
252	0xec	-20
253	0x20	32
254	0x81	-127
255	0x1a	26
