tensorflow/model.tflite (tflite, 199664 bytes, 4 tensors)

sequential_6/sequential_5/dense_6/MatMul i1 [40, 4800] scale=0.00639138 zero_point=0
0.05752242 0.02556552 -0.03834828 -0.05752242 -0.05113104 0.4154397 0.01278276 0.1278276
-0.01917414 0.32596037 0.13421898 0.33874315 0.0958707 -0.4473966 -0.11504484 0.26843795
0.0319569 -0.03834828 -0.20452416 0.17256726 0.01917414 0.0319569 0.0319569 0.01278276
-0.05113104 -0.21091554 -0.03834828 -0.32596037 0.03834828 0.10226208 -0.02556552 0.00639138
-0.01917414 -0.07030518 -0.108653456 0.20452416 -0.02556552 -0.00639138 0.083087936 -0.04473966
0.00639138 -0.13421898 -0.01917414 -0.05752242 0.01917414 0.08947932 -0.00639138 -0.05752242
0.01917414 -0.01278276 0.04473966 0.00639138 -0.02556552 -0.14061037 -0.17895864 0.0639138
-0.0958707 -0.03834828 -0.05113104 0.1278276 0.0319569 -0.14061037 -0.24287245 0.07030518
-0.08947932 0.21730691 -0.05752242 0.17256726 -0.24926382 -0.08947932 -0.20452416 -0.0639138
-0.11504484 -0.00639138 0.0319569 -0.27482933 -0.083087936 -0.05113104 0.08947932 -0.30039486
-0.01278276 0.05113104 -0.0958707 -0.13421898 0.0319569 0.02556552 0.11504484 -0.05113104
0.13421898 0.03834828 0.0319569 0.1278276 -0.108653456 -0.00639138 -0.00639138 -0.02556552
-0.05113104 -0.01278276 -0.02556552 -0.32596037 -0.0958707 0.02556552 0.14061037 -0.07669656
0.01917414 -0.05113104 0.0 -0.10226208 -0.01278276 -0.08947932 -0.02556552 -0.1278276
-0.01278276 0.0319569 -0.1597845 -0.05752242 0.01917414 0.0 -0.0639138 -0.10226208
0.0958707 0.10226208 -0.0319569 0.04473966 -0.03834828 0.0 -0.01917414 -0.16617587
0.0 -0.21091554 0.108653456 -0.01917414 0.0319569 0.05752242 0.10226208 -0.04473966
0.03834828 -0.0319569 0.0958707 0.04473966 0.05113104 0.0 0.01917414 0.01917414
0.05113104 0.0639138 0.08947932 0.1597845 -0.02556552 0.17256726 0.01278276 0.28122073
0.0 0.04473966 -0.0319569 0.01278276 0.01917414 -0.04473966 -0.07030518 -0.02556552
-0.21730691 0.05752242 0.14061037 -0.14700174 0.05752242 0.07030518 0.02556552 0.08947932
0.083087936 0.27482933 0.17895864 0.23008968 0.02556552 -0.18535002 0.01917414 0.15339312
0.05752242 -0.0958707 0.00639138 0.19813278 -0.1597845 -0.11504484 0.01278276 0.08947932
-0.11504484 0.03834828 0.12143622 -0.108653456 0.16617587 0.11504484 -0.05113104 0.01917414
0.108653456 0.00639138 0.05113104 0.1278276 -0.12143622 -0.04473966 -0.16617587 0.01917414
-0.01278276 -0.11504484 -0.05113104 -0.11504484 -0.07030518 0.11504484 0.0958707 0.0
0.04473966 -0.108653456 0.01278276 -0.07669656 -0.03834828 0.17256726 0.10226208 0.05752242
0.16617587 -0.0319569 0.1278276 -0.0319569 0.11504484 -0.00639138 0.0 0.01917414
0.0639138 -0.00639138 -0.11504484 0.0958707 -0.0319569 0.12143622 0.108653456 -0.15339312
-0.20452416 -0.07669656 -0.04473966 -0.21091554 -0.23648106 -0.11504484 0.01917414 -0.14061037
0.07669656 -0.14061037 -0.05113104 -0.07669656 0.07669656 0.17256726 0.01278276 0.14700174
-0.0319569 0.01278276 0.0 0.12143622 -0.12143622 0.0319569 -0.28122073 0.0639138
00000000: 0904 faf7 f841 0214 fd33 1535 0fba ee2a
00000010: 05fa e01b 0305 0502 f8df facd 0610 fc01
00000020: fdf5 ef20 fcff 0df9 01eb fdf7 030e fff7
00000030: 03fe 0701 fcea e40a f1fa f814 05ea da0b
00000040: f222 f71b d9f2 e0f6 eeff 05d5 f3f8 0ed1
00000050: fe08 f1eb 0504 12f8 1506 0514 efff fffc
00000060: f8fe fccd f104 16f4 03f8 00f0 fef2 fcec
00000070: fe05 e7f7 0300 f6f0 0f10 fb07 fa00 fde6
00000080: 00df 11fd 0509 10f9 06fb 0f07 0800 0303
00000090: 080a 0e19 fc1b 022c 0007 fb02 03f9 f5fc
000000a0: de09 16e9 090b 040e 0d2b 1c24 04e3 0318
000000b0: 09f1 011f e7ee 020e ee06 13ef 1a12 f803
000000c0: 1101 0814 edf9 e603 feee f8ee f512 0f00
000000d0: 07ef 02f4 fa1b 1009 1afb 14fb 12ff 0003
000000e0: 0aff ee0f fb13 11e8 e0f4 f9df dbee 03ea
000000f0: 0cea f8f4 0c1b 0217 fb02 0013 ed05 d40a

sequential_6/sequential_5/dense_7/MatMul i1 [40, 40] scale=0.0061932006 zero_point=0
0.030966002 -0.21056882 0.29727364 0.012386401 -0.16102321 -0.24772802 -0.24772802 -0.17960282
0.2725008 -0.18579602 -0.12386401 0.11147761 -0.043352403 -0.012386401 -0.08051161 0.24153483
0.08051161 0.16102321 -0.12386401 -0.21056882 0.22295523 -0.061932005 0.28488722 -0.030966002
0.018579602 0.14244361 0.21676202 -0.18579602 0.17340961 -0.26011443 0.012386401 0.0061932006
-0.030966002 -0.21676202 -0.17340961 0.0061932006 0.11147761 0.1362504 -0.26011443 -0.0061932006
0.061932005 -0.22295523 -0.1362504 -0.08051161 -0.37159204 -0.23534162 -0.2539212 -0.19198921
0.07431841 -0.28488722 0.061932005 -0.07431841 0.049545605 0.16721642 -0.07431841 0.0
-0.22295523 -0.42113763 0.22295523 0.055738807 0.055738807 0.1362504 -0.26011443 0.018579602
0.32204643 -0.16102321 -0.012386401 -0.26011443 -0.26011443 -0.17960282 0.037159204 0.12386401
-0.29108042 0.012386401 -0.24153483 -0.1362504 0.09909121 0.34681922 -0.2539212 0.061932005
-0.32204643 -0.14863682 -0.19818242 0.20437562 -0.09909121 -0.17960282 -0.08051161 0.018579602
0.34681922 0.13005722 0.0681252 0.037159204 0.22914842 -0.11767081 -0.24772802 -0.28488722
-0.30966002 -0.50164926 0.2539212 0.24772802 0.23534162 0.19818242 -0.09909121 -0.24772802
0.19818242 -0.08051161 0.22295523 0.030966002 0.13005722 -0.061932005 0.09289801 -0.23534162
-0.31585324 -0.15483001 -0.061932005 -0.17340961 0.14863682 0.09289801 -0.11767081 0.012386401
-0.012386401 -0.13005722 -0.30966002 -0.13005722 -0.20437562 -0.1362504 -0.08051161 0.20437562
0.24772802 0.055738807 -0.037159204 0.1362504 -0.08051161 -0.26630762 0.22295523 -0.0681252
0.09909121 -0.38397843 0.14863682 -0.1362504 0.018579602 -0.26011443 -0.12386401 -0.049545605
0.40255803 -0.17340961 0.037159204 -0.061932005 0.40255803 -0.086704805 -0.21056882 -0.35301244
-0.33443284 -0.45210364 -0.0681252 -0.46449006 0.11147761 -0.037159204 -0.055738807 -0.17340961
-0.33443284 0.11147761 0.0681252 0.09909121 -0.16721642 0.26011443 0.086704805 -0.024772802
-0.15483001 -0.09909121 -0.24153483 0.24153483 -0.23534162 -0.17340961 0.12386401 -0.48306966
-0.086704805 -0.30346683 0.09909121 0.018579602 -0.049545605 0.24153483 -0.09909121 -0.23534162
0.2539212 -0.22295523 -0.012386401 0.043352403 -0.030966002 -0.1362504 0.22295523 -0.37159204
0.35301244 -0.61932003 0.11767081 -0.2725008 0.39636484 0.33443284 -0.07431841 -0.16721642
-0.012386401 -0.09289801 0.0061932006 0.049545605 -0.32823962 0.10528441 -0.037159204 -0.20437562
-0.024772802 0.2725008 -0.14244361 -0.26011443 -0.26630762 -0.037159204 -0.18579602 -0.0061932006
0.40255803 -0.43352404 0.12386401 -0.60693365 0.16721642 0.22914842 -0.061932005 -0.09289801
0.024772802 0.037159204 0.0681252 0.10528441 -0.20437562 -0.21676202 -0.043352403 -0.56977445
0.19198921 -0.043352403 -0.18579602 -0.30346683 0.086704805 0.34681922 0.16721642 0.20437562
-0.52022886 0.24153483 -0.27869403 0.012386401 -0.26011443 -0.14863682 0.24153483 -0.012386401
-0.48926285 0.10528441 0.22914842 -0.26011443 -0.2539212 -0.012386401 -0.2539212 0.42733085
00000000: 05de 3002 e6d8 d8e3 2ce2 ec12 f9fe f327
00000010: 0d1a ecde 24f6 2efb 0317 23e2 1cd6 0201
00000020: fbdd e401 1216 d6ff 0adc eaf3 c4da d7e1
00000030: 0cd2 0af4 081b f400 dcbc 2409 0916 d603
00000040: 34e6 fed6 d6e3 0614 d102 d9ea 1038 d70a
00000050: cce8 e021 f0e3 f303 3815 0b06 25ed d8d2
00000060: ceaf 2928 2620 f0d8 20f3 2405 15f6 0fda
00000070: cde7 f6e4 180f ed02 feeb ceeb dfea f321
00000080: 2809 fa16 f3d5 24f5 10c2 18ea 03d6 ecf8
00000090: 41e4 06f6 41f2 dec7 cab7 f5b5 12fa f7e4
000000a0: ca12 0b10 e52a 0efc e7f0 d927 dae4 14b2
000000b0: f2cf 1003 f827 f0da 29dc fe07 fbea 24c4
000000c0: 399c 13d4 4036 f4e5 fef1 0108 cb11 fadf
000000d0: fc2c e9d6 d5fa e2ff 41ba 149e 1b25 f6f1
000000e0: 0406 0b11 dfdd f9a4 1ff9 e2cf 0e38 1b21
000000f0: ac27 d302 d6e8 27fe b111 25d6 d7fe d745

sequential_6/sequential_5/conv2d_10/Conv2D i1 [8, 3, 3, 3]
108 47 -8 106 47 70 73 44
102 79 26 38 84 -52 -16 127
40 78 94 -23 -76 49 -65 -85
93 34 -55 49 90 92 111 87
127 23 -13 60 44 -43 -54 16
39 0 2 -94 19 -60 -43 24
1 -5 -77 -26 -59 -101 13 -29
-29 39 47 64 127 -28 52 -24
-73 -77 46 -33 49 117 14 -21
-25 -87 -36 77 -48 48 20 -46
10 63 36 39 127 73 97 55
15 7 71 -28 38 75 -29 55
-29 -43 35 15 -66 -87 -31 26
-54 19 28 -11 -51 65 44 121
127 60 77 -8 115 -49 14 16
-20 53 9 109 92 117 -64 43
-1 -5 53 -49 110 93 38 -9
18 -11 0 84 54 6 -99 -104
106 -10 85 127 -8 94 -61 -47
-74 -1 -37 1 98 90 108 -80
-44 -92 39 31 -45 -3 -85 -91
24 -36 -40 2 66 -15 15 -15
-102 -43 -30 -80 106 44 127 92
68 83 43 40 -68 92 27 83
-28 -18 -99 -44 -10 -30 62 113
86 -52 -25 -93 -55 -7 -72 120
11 127 36 -17 -64 38 -48 -63
00000000: 6c2f f86a 2f46 492c 664f 1a26 54cc f07f
00000010: 284e 5ee9 b431 bfab 5d22 c931 5a5c 6f57
00000020: 7f17 f33c 2cd5 ca10 2700 02a2 13c4 d518
00000030: 01fb b3e6 c59b 0de3 e327 2f40 7fe4 34e8
00000040: b7b3 2edf 3175 0eeb e7a9 dc4d d030 14d2
00000050: 0a3f 2427 7f49 6137 0f07 47e4 264b e337
00000060: e3d5 230f bea9 e11a ca13 1cf5 cd41 2c79
00000070: 7f3c 4df8 73cf 0e10 ec35 096d 5c75 c02b
00000080: fffb 35cf 6e5d 26f7 12f5 0054 3606 9d98
00000090: 6af6 557f f85e c3d1 b6ff db01 625a 6cb0
000000a0: d4a4 271f d3fd aba5 18dc d802 42f1 0ff1
000000b0: 9ad5 e2b0 6a2c 7f5c 4453 2b28 bc5c 1b53
000000c0: e4ee 9dd4 f6e2 3e71 56cc e7a3 c9f9 b878
000000d0: 0b7f 24ef c026 d0c1

sequential_6/sequential_5/conv2d_11/Conv2D i1 [4, 3, 3, 8]
-26 -11 -33 -45 -25 2 32 -48
-21 -52 -17 -36 -17 -48 80 11
-4 -81 8 -43 -18 2 17 16
-9 -37 18 -8 -8 32 18 -3
17 -17 58 6 25 44 98 33
3 23 -56 -2 -57 66 95 122
11 14 -8 45 25 -7 -31 10
41 49 68 60 9 37 -37 -6
-15 23 -65 -21 -56 78 70 127
19 -33 27 -8 2 81 -28 54
33 -56 69 -2 0 -120 -86 33
55 -10 116 15 18 50 -3 -37
-36 27 13 -21 -40 127 14 48
-40 -33 74 -38 -42 -124 -69 1
48 55 119 57 27 24 -41 -39
-22 1 -62 -34 -26 114 50 86
-23 -60 12 -29 1 -96 -24 40
-9 -44 24 36 0 -26 -37 -74
24 -36 75 -16 -12 7 30 -46
-34 -37 30 -19 17 -22 40 -117
-38 14 -54 31 16 99 127 82
-11 27 115 -23 6 28 -37 -61
33 67 116 1 -12 10 -120 -104
19 106 112 45 30 -29 -49 -73
-43 -19 29 9 13 21 -10 15
-30 -8 56 -13 -28 -64 16 -18
-8 -18 -19 -1 -46 -35 -45 -100
40 34 57 17 -10 34 8 59
4 81 21 26 16 -67 -84 -19
24 69 77 11 9 -32 -36 -8
8 -14 -8 16 16 40 38 61
-21 -56 -50 -49 -39 19 76 70
00000000: e6f5 dfd3 e702 20d0 ebcc efdc efd0 500b
00000010: fcaf 08d5 ee02 1110 f7db 12f8 f820 12fd
00000020: 11ef 3a06 192c 6221 0317 c8fe c742 5f7a
00000030: 0b0e f82d 19f9 e10a 2931 443c 0925 dbfa
00000040: f117 bfeb c84e 467f 13df 1bf8 0251 e436
00000050: 21c8 45fe 0088 aa21 37f6 740f 1232 fddb
00000060: dc1b 0deb d87f 0e30 d8df 4ada d684 bb01
00000070: 3037 7739 1b18 d7d9 ea01 c2de e672 3256
00000080: e9c4 0ce3 01a0 e828 f7d4 1824 00e6 dbb6
00000090: 18dc 4bf0 f407 1ed2 dedb 1eed 11ea 288b
000000a0: da0e ca1f 1063 7f52 f51b 73e9 061c dbc3
000000b0: 2143 7401 f40a 8898 136a 702d 1ee3 cfb7
000000c0: d5ed 1d09 0d15 f60f e2f8 38f3 e4c0 10ee
000000d0: f8ee edff d2dd d39c 2822 3911 f622 083b
000000e0: 0451 151a 10bd aced 1845 4d0b 09e0 dcf8
000000f0: 08f2 f810 1028 263d ebc8 cecf d913 4c46
